node {
  name: "global_step/Initializer/zeros"
  op: "Const"
  attr {
    key: "_class"
    value {
      list {
        s: "loc:@global_step"
      }
    }
  }
  attr {
    key: "_output_shapes"
    value {
      list {
        shape {
        }
      }
    }
  }
  attr {
    key: "dtype"
    value {
      type: DT_INT64
    }
  }
  attr {
    key: "value"
    value {
      tensor {
        dtype: DT_INT64
        tensor_shape {
        }
        int64_val: 0
      }
    }
  }
}
node {
  name: "global_step"
  op: "VariableV2"
  attr {
    key: "_class"
    value {
      list {
        s: "loc:@global_step"
      }
    }
  }
  attr {
    key: "_output_shapes"
    value {
      list {
        shape {
        }
      }
    }
  }
  attr {
    key: "container"
    value {
      s: ""
    }
  }
  attr {
    key: "dtype"
    value {
      type: DT_INT64
    }
  }
  attr {
    key: "shape"
    value {
      shape {
      }
    }
  }
  attr {
    key: "shared_name"
    value {
      s: ""
    }
  }
}
node {
  name: "global_step/Assign"
  op: "Assign"
  input: "global_step"
  input: "global_step/Initializer/zeros"
  attr {
    key: "T"
    value {
      type: DT_INT64
    }
  }
  attr {
    key: "_class"
    value {
      list {
        s: "loc:@global_step"
      }
    }
  }
  attr {
    key: "_output_shapes"
    value {
      list {
        shape {
        }
      }
    }
  }
  attr {
    key: "use_locking"
    value {
      b: true
    }
  }
  attr {
    key: "validate_shape"
    value {
      b: true
    }
  }
}
node {
  name: "global_step/read"
  op: "Identity"
  input: "global_step"
  attr {
    key: "T"
    value {
      type: DT_INT64
    }
  }
  attr {
    key: "_class"
    value {
      list {
        s: "loc:@global_step"
      }
    }
  }
  attr {
    key: "_output_shapes"
    value {
      list {
        shape {
        }
      }
    }
  }
}
node {
  name: "global_step/IsVariableInitialized"
  op: "IsVariableInitialized"
  input: "global_step"
  attr {
    key: "_class"
    value {
      list {
        s: "loc:@global_step"
      }
    }
  }
  attr {
    key: "_output_shapes"
    value {
      list {
        shape {
        }
      }
    }
  }
  attr {
    key: "dtype"
    value {
      type: DT_INT64
    }
  }
}
node {
  name: "global_step/cond/Switch"
  op: "Switch"
  input: "global_step/IsVariableInitialized"
  input: "global_step/IsVariableInitialized"
  attr {
    key: "T"
    value {
      type: DT_BOOL
    }
  }
  attr {
    key: "_output_shapes"
    value {
      list {
        shape {
        }
        shape {
        }
      }
    }
  }
}
node {
  name: "global_step/cond/switch_t"
  op: "Identity"
  input: "global_step/cond/Switch:1"
  attr {
    key: "T"
    value {
      type: DT_BOOL
    }
  }
  attr {
    key: "_output_shapes"
    value {
      list {
        shape {
        }
      }
    }
  }
}
node {
  name: "global_step/cond/switch_f"
  op: "Identity"
  input: "global_step/cond/Switch"
  attr {
    key: "T"
    value {
      type: DT_BOOL
    }
  }
  attr {
    key: "_output_shapes"
    value {
      list {
        shape {
        }
      }
    }
  }
}
node {
  name: "global_step/cond/pred_id"
  op: "Identity"
  input: "global_step/IsVariableInitialized"
  attr {
    key: "T"
    value {
      type: DT_BOOL
    }
  }
  attr {
    key: "_output_shapes"
    value {
      list {
        shape {
        }
      }
    }
  }
}
node {
  name: "global_step/cond/read"
  op: "Identity"
  input: "global_step/cond/read/Switch:1"
  attr {
    key: "T"
    value {
      type: DT_INT64
    }
  }
  attr {
    key: "_output_shapes"
    value {
      list {
        shape {
        }
      }
    }
  }
}
node {
  name: "global_step/cond/read/Switch"
  op: "RefSwitch"
  input: "global_step"
  input: "global_step/cond/pred_id"
  attr {
    key: "T"
    value {
      type: DT_INT64
    }
  }
  attr {
    key: "_class"
    value {
      list {
        s: "loc:@global_step"
      }
    }
  }
  attr {
    key: "_output_shapes"
    value {
      list {
        shape {
        }
        shape {
        }
      }
    }
  }
}
node {
  name: "global_step/cond/Switch_1"
  op: "Switch"
  input: "global_step/Initializer/zeros"
  input: "global_step/cond/pred_id"
  attr {
    key: "T"
    value {
      type: DT_INT64
    }
  }
  attr {
    key: "_class"
    value {
      list {
        s: "loc:@global_step"
      }
    }
  }
  attr {
    key: "_output_shapes"
    value {
      list {
        shape {
        }
        shape {
        }
      }
    }
  }
}
node {
  name: "global_step/cond/Merge"
  op: "Merge"
  input: "global_step/cond/Switch_1"
  input: "global_step/cond/read"
  attr {
    key: "N"
    value {
      i: 2
    }
  }
  attr {
    key: "T"
    value {
      type: DT_INT64
    }
  }
  attr {
    key: "_output_shapes"
    value {
      list {
        shape {
        }
        shape {
        }
      }
    }
  }
}
node {
  name: "global_step/add/y"
  op: "Const"
  attr {
    key: "_output_shapes"
    value {
      list {
        shape {
        }
      }
    }
  }
  attr {
    key: "dtype"
    value {
      type: DT_INT64
    }
  }
  attr {
    key: "value"
    value {
      tensor {
        dtype: DT_INT64
        tensor_shape {
        }
        int64_val: 0
      }
    }
  }
}
node {
  name: "global_step/add"
  op: "Add"
  input: "global_step/cond/Merge"
  input: "global_step/add/y"
  attr {
    key: "T"
    value {
      type: DT_INT64
    }
  }
  attr {
    key: "_output_shapes"
    value {
      list {
        shape {
        }
      }
    }
  }
}
node {
  name: "filenames"
  op: "Const"
  device: "/device:CPU:0"
  attr {
    key: "_output_shapes"
    value {
      list {
        shape {
        }
      }
    }
  }
  attr {
    key: "dtype"
    value {
      type: DT_STRING
    }
  }
  attr {
    key: "value"
    value {
      tensor {
        dtype: DT_STRING
        tensor_shape {
        }
        string_val: "../../recData/movieLens1m_201809\\train.csv"
      }
    }
  }
}
node {
  name: "compression_type"
  op: "Const"
  device: "/device:CPU:0"
  attr {
    key: "_output_shapes"
    value {
      list {
        shape {
        }
      }
    }
  }
  attr {
    key: "dtype"
    value {
      type: DT_STRING
    }
  }
  attr {
    key: "value"
    value {
      tensor {
        dtype: DT_STRING
        tensor_shape {
        }
        string_val: ""
      }
    }
  }
}
node {
  name: "buffer_size"
  op: "Const"
  device: "/device:CPU:0"
  attr {
    key: "_output_shapes"
    value {
      list {
        shape {
        }
      }
    }
  }
  attr {
    key: "dtype"
    value {
      type: DT_INT64
    }
  }
  attr {
    key: "value"
    value {
      tensor {
        dtype: DT_INT64
        tensor_shape {
        }
        int64_val: 262144
      }
    }
  }
}
node {
  name: "string_to_index/Const"
  op: "Const"
  device: "/device:CPU:0"
  attr {
    key: "_output_shapes"
    value {
      list {
        shape {
          dim {
            size: 8712
          }
        }
      }
    }
  }
  attr {
    key: "dtype"
    value {
      type: DT_STRING
    }
  }
  attr {
    key: "value"
    value {
      tensor {
        dtype: DT_STRING
        tensor_shape {
          dim {
            size: 8712
          }
        }
        string_val: "click_seq_86190"
        string_val: "click_seq_5630"
        string_val: "click_seq_1873"
        string_val: "click_seq_2726"
        string_val: "click_seq_8153"
        string_val: "click_seq_1275"
        string_val: "click_seq_38798"
        string_val: "click_seq_6049"
        string_val: "click_seq_38095"
        string_val: "click_seq_2396"
        string_val: "click_seq_159"
        string_val: "click_seq_185135"
        string_val: "click_seq_151455"
        string_val: "click_seq_166183"
        string_val: "click_seq_900"
        string_val: "click_seq_5767"
        string_val: "click_seq_3244"
        string_val: "click_seq_82499"
        string_val: "click_seq_5963"
        string_val: "click_seq_131724"
        string_val: "click_seq_5178"
        string_val: "click_seq_91094"
        string_val: "click_seq_2279"
        string_val: "click_seq_3111"
        string_val: "click_seq_3715"
        string_val: "click_seq_80083"
        string_val: "click_seq_179133"
        string_val: "click_seq_6554"
        string_val: "click_seq_270"
        string_val: "click_seq_1387"
        string_val: "click_seq_2321"
        string_val: "click_seq_92046"
        string_val: "click_seq_1396"
        string_val: "click_seq_6624"
        string_val: "click_seq_6012"
        string_val: "click_seq_1241"
        string_val: "click_seq_3578"
        string_val: "click_seq_1073"
        string_val: "click_seq_412"
        string_val: "click_seq_101360"
        string_val: "click_seq_49647"
        string_val: "click_seq_3103"
        string_val: "click_seq_6869"
        string_val: "click_seq_136602"
        string_val: "click_seq_6214"
        string_val: "click_seq_58107"
        string_val: "click_seq_102"
        string_val: "click_seq_27704"
        string_val: "click_seq_4402"
        string_val: "click_seq_39292"
        string_val: "click_seq_164367"
        string_val: "click_seq_90384"
        string_val: "click_seq_8169"
        string_val: "click_seq_46723"
        string_val: "click_seq_155812"
        string_val: "click_seq_163645"
        string_val: "click_seq_81257"
        string_val: "click_seq_250"
        string_val: "click_seq_1429"
        string_val: "click_seq_4111"
        string_val: "click_seq_4919"
        string_val: "click_seq_7073"
        string_val: "click_seq_2518"
        string_val: "click_seq_27695"
        string_val: "click_seq_1825"
        string_val: "click_seq_106648"
        string_val: "click_seq_357"
        string_val: "click_seq_39234"
        string_val: "click_seq_4833"
        string_val: "click_seq_1192"
        string_val: "click_seq_42728"
        string_val: "click_seq_131749"
        string_val: "click_seq_112006"
        string_val: "click_seq_70492"
        string_val: "click_seq_7150"
        string_val: "click_seq_3623"
        string_val: "click_seq_1582"
        string_val: "click_seq_148652"
        string_val: "click_seq_2710"
        string_val: "click_seq_5065"
        string_val: "click_seq_4835"
        string_val: "click_seq_129333"
        string_val: "click_seq_87194"
        string_val: "click_seq_2661"
        string_val: "click_seq_6338"
        string_val: "click_seq_101142"
        string_val: "click_seq_4770"
        string_val: "click_seq_71"
        string_val: "click_seq_7162"
        string_val: "click_seq_6086"
        string_val: "click_seq_143472"
        string_val: "click_seq_5564"
        string_val: "genres_Film-Noir"
        string_val: "click_seq_132153"
        string_val: "click_seq_1399"
        string_val: "click_seq_5246"
        string_val: "click_seq_3051"
        string_val: "click_seq_112552"
        string_val: "click_seq_6807"
        string_val: "click_seq_4436"
        string_val: "click_seq_1599"
        string_val: "click_seq_145418"
        string_val: "click_seq_1042"
        string_val: "click_seq_27873"
        string_val: "click_seq_158254"
        string_val: "click_seq_3230"
        string_val: "click_seq_6059"
        string_val: "click_seq_127108"
        string_val: "click_seq_95218"
        string_val: "click_seq_2871"
        string_val: "click_seq_766"
        string_val: "click_seq_71205"
        string_val: "click_seq_2947"
        string_val: "click_seq_72378"
        string_val: "click_seq_1140"
        string_val: "click_seq_7192"
        string_val: "click_seq_71494"
        string_val: "click_seq_102194"
        string_val: "click_seq_175"
        string_val: "click_seq_79501"
        string_val: "click_seq_1658"
        string_val: "click_seq_4500"
        string_val: "click_seq_8864"
        string_val: "click_seq_94150"
        string_val: "click_seq_6692"
        string_val: "click_seq_3893"
        string_val: "click_seq_8491"
        string_val: "click_seq_120625"
        string_val: "click_seq_4903"
        string_val: "click_seq_92234"
        string_val: "click_seq_8338"
        string_val: "click_seq_95949"
        string_val: "click_seq_4229"
        string_val: "click_seq_229"
        string_val: "click_seq_96737"
        string_val: "click_seq_6294"
        string_val: "click_seq_6378"
        string_val: "click_seq_152037"
        string_val: "click_seq_58293"
        string_val: "click_seq_57502"
        string_val: "click_seq_1212"
        string_val: "click_seq_145839"
        string_val: "click_seq_92427"
        string_val: "click_seq_55276"
        string_val: "click_seq_39435"
        string_val: "click_seq_43419"
        string_val: "click_seq_8987"
        string_val: "click_seq_2902"
        string_val: "click_seq_2718"
        string_val: "click_seq_122896"
        string_val: "click_seq_4010"
        string_val: "click_seq_8626"
        string_val: "click_seq_7584"
        string_val: "click_seq_155168"
        string_val: "click_seq_174479"
        string_val: "click_seq_30898"
        string_val: "click_seq_179817"
        string_val: "click_seq_1257"
        string_val: "click_seq_69685"
        string_val: "click_seq_1100"
        string_val: "click_seq_48394"
        string_val: "click_seq_4803"
        string_val: "click_seq_51662"
        string_val: "click_seq_2796"
        string_val: "click_seq_36477"
        string_val: "click_seq_53140"
        string_val: "click_seq_33672"
        string_val: "click_seq_4683"
        string_val: "click_seq_426"
        string_val: "click_seq_46855"
        string_val: "click_seq_4238"
        string_val: "click_seq_112370"
        string_val: "click_seq_6947"
        string_val: "click_seq_257"
        string_val: "click_seq_888"
        string_val: "click_seq_5339"
        string_val: "click_seq_27193"
        string_val: "click_seq_1449"
        string_val: "click_seq_4966"
        string_val: "click_seq_4580"
        string_val: "click_seq_70336"
        string_val: "click_seq_26750"
        string_val: "click_seq_5902"
        string_val: "click_seq_61011"
        string_val: "click_seq_7844"
        string_val: "click_seq_1515"
        string_val: "click_seq_220"
        string_val: "click_seq_6872"
        string_val: "click_seq_5062"
        string_val: "click_seq_4067"
        string_val: "click_seq_97024"
        string_val: "click_seq_4448"
        string_val: "click_seq_1312"
        string_val: "click_seq_143410"
        string_val: "click_seq_4280"
        string_val: "click_seq_3289"
        string_val: "click_seq_3537"
        string_val: "click_seq_45880"
        string_val: "click_seq_133798"
        string_val: "click_seq_147196"
        string_val: "click_seq_104925"
        string_val: "click_seq_938"
        string_val: "click_seq_3424"
        string_val: "click_seq_1432"
        string_val: "click_seq_6564"
        string_val: "click_seq_137345"
        string_val: "click_seq_176601"
        string_val: "click_seq_4477"
        string_val: "click_seq_8012"
        string_val: "click_seq_52604"
        string_val: "click_seq_81564"
        string_val: "click_seq_5213"
        string_val: "click_seq_5512"
        string_val: "click_seq_32898"
        string_val: "click_seq_3506"
        string_val: "click_seq_43556"
        string_val: "click_seq_7620"
        string_val: "click_seq_1642"
        string_val: "click_seq_55067"
        string_val: "click_seq_33166"
        string_val: "click_seq_508"
        string_val: "click_seq_7051"
        string_val: "click_seq_139640"
        string_val: "click_seq_5205"
        string_val: "click_seq_69529"
        string_val: "click_seq_1672"
        string_val: "click_seq_74789"
        string_val: "click_seq_27762"
        string_val: "click_seq_4678"
        string_val: "click_seq_3157"
        string_val: "click_seq_94070"
        string_val: "click_seq_157312"
        string_val: "click_seq_149146"
        string_val: "click_seq_783"
        string_val: "click_seq_4732"
        string_val: "click_seq_147384"
        string_val: "click_seq_92391"
        string_val: "click_seq_53956"
        string_val: "click_seq_2433"
        string_val: "click_seq_4663"
        string_val: "click_seq_37444"
        string_val: "click_seq_3108"
        string_val: "click_seq_4035"
        string_val: "click_seq_2618"
        string_val: "click_seq_3410"
        string_val: "click_seq_2790"
        string_val: "click_seq_2351"
        string_val: "click_seq_1231"
        string_val: "click_seq_1236"
        string_val: "click_seq_8385"
        string_val: "click_seq_50514"
        string_val: "click_seq_71254"
        string_val: "click_seq_26631"
        string_val: "click_seq_5282"
        string_val: "click_seq_6368"
        string_val: "click_seq_6695"
        string_val: "click_seq_1556"
        string_val: "click_seq_258"
        string_val: "click_seq_3323"
        string_val: "click_seq_78142"
        string_val: "click_seq_89039"
        string_val: "click_seq_2387"
        string_val: "click_seq_1028"
        string_val: "click_seq_2565"
        string_val: "click_seq_75446"
        string_val: "click_seq_139655"
        string_val: "click_seq_2354"
        string_val: "click_seq_6434"
        string_val: "click_seq_7173"
        string_val: "click_seq_37384"
        string_val: "click_seq_80860"
        string_val: "click_seq_502"
        string_val: "click_seq_2922"
        string_val: "click_seq_62792"
        string_val: "click_seq_1614"
        string_val: "click_seq_6009"
        string_val: "click_seq_5060"
        string_val: "click_seq_898"
        string_val: "click_seq_6684"
        string_val: "click_seq_71147"
        string_val: "click_seq_5696"
        string_val: "click_seq_167064"
        string_val: "click_seq_66785"
        string_val: "click_seq_32799"
        string_val: "click_seq_7340"
        string_val: "click_seq_3767"
        string_val: "click_seq_4420"
        string_val: "click_seq_100302"
        string_val: "click_seq_3639"
        string_val: "click_seq_3990"
        string_val: "click_seq_1019"
        string_val: "click_seq_3711"
        string_val: "click_seq_100507"
        string_val: "click_seq_26078"
        string_val: "click_seq_2070"
        string_val: "click_seq_8008"
        string_val: "click_seq_4322"
        string_val: "click_seq_70545"
        string_val: "click_seq_6628"
        string_val: "click_seq_96964"
        string_val: "click_seq_698"
        string_val: "click_seq_85259"
        string_val: "click_seq_38"
        string_val: "click_seq_5999"
        string_val: "click_seq_639"
        string_val: "click_seq_178827"
        string_val: "click_seq_3869"
        string_val: "click_seq_2259"
        string_val: "click_seq_479"
        string_val: "click_seq_94896"
        string_val: "click_seq_2644"
        string_val: "click_seq_173619"
        string_val: "click_seq_3685"
        string_val: "click_seq_31114"
        string_val: "click_seq_981"
        string_val: "click_seq_1572"
        string_val: "click_seq_1061"
        string_val: "click_seq_2349"
        string_val: "click_seq_180265"
        string_val: "click_seq_4386"
        string_val: "click_seq_31184"
        string_val: "click_seq_6182"
        string_val: "click_seq_7024"
        string_val: "click_seq_90531"
        string_val: "click_seq_3183"
        string_val: "click_seq_178323"
        string_val: "click_seq_5073"
        string_val: "click_seq_26413"
        string_val: "click_seq_461"
        string_val: "click_seq_71518"
        string_val: "click_seq_26865"
        string_val: "click_seq_3313"
        string_val: "click_seq_132496"
        string_val: "click_seq_36527"
        string_val: "click_seq_2367"
        string_val: "click_seq_136838"
        string_val: "click_seq_7156"
        string_val: "click_seq_86000"
        string_val: "click_seq_267"
        string_val: "click_seq_92507"
        string_val: "click_seq_180497"
        string_val: "click_seq_6809"
        string_val: "click_seq_26630"
        string_val: "click_seq_210"
        string_val: "click_seq_150604"
        string_val: "click_seq_9004"
        string_val: "click_seq_3142"
        string_val: "click_seq_680"
        string_val: "click_seq_3241"
        string_val: "click_seq_7027"
        string_val: "click_seq_4995"
        string_val: "click_seq_85"
        string_val: "click_seq_53921"
        string_val: "click_seq_1426"
        string_val: "click_seq_8238"
        string_val: "click_seq_3330"
        string_val: "click_seq_69131"
        string_val: "click_seq_95170"
        string_val: "click_seq_55167"
        string_val: "click_seq_1095"
        string_val: "click_seq_71106"
        string_val: "click_seq_1273"
        string_val: "click_seq_157108"
        string_val: "click_seq_94985"
        string_val: "click_seq_8968"
        string_val: "click_seq_731"
        string_val: "click_seq_169912"
        string_val: "click_seq_8984"
        string_val: "click_seq_50003"
        string_val: "click_seq_4823"
        string_val: "click_seq_921"
        string_val: "click_seq_1497"
        string_val: "click_seq_356"
        string_val: "click_seq_34520"
        string_val: "click_seq_80864"
        string_val: "click_seq_2941"
        string_val: "click_seq_4089"
        string_val: "click_seq_189"
        string_val: "click_seq_48214"
        string_val: "click_seq_136864"
        string_val: "click_seq_52952"
        string_val: "click_seq_7193"
        string_val: "click_seq_103772"
        string_val: "click_seq_332"
        string_val: "click_seq_6705"
        string_val: "click_seq_4757"
        string_val: "click_seq_3873"
        string_val: "click_seq_26562"
        string_val: "click_seq_130686"
        string_val: "click_seq_8774"
        string_val: "click_seq_32589"
        string_val: "click_seq_8119"
        string_val: "click_seq_36519"
        string_val: "click_seq_3478"
        string_val: "click_seq_67695"
        string_val: "click_seq_173317"
        string_val: "click_seq_148671"
        string_val: "click_seq_80846"
        string_val: "click_seq_8879"
        string_val: "click_seq_1137"
        string_val: "click_seq_33830"
        string_val: "click_seq_27667"
        string_val: "click_seq_48385"
        string_val: "click_seq_73160"
        string_val: "click_seq_2611"
        string_val: "click_seq_25757"
        string_val: "click_seq_160567"
        string_val: "click_seq_68554"
        string_val: "click_seq_91630"
        string_val: "click_seq_102025"
        string_val: "click_seq_7190"
        string_val: "click_seq_8848"
        string_val: "click_seq_6502"
        string_val: "click_seq_125914"
        string_val: "click_seq_7394"
        string_val: "click_seq_61628"
        string_val: "click_seq_2772"
        string_val: "click_seq_6249"
        string_val: "click_seq_3628"
        string_val: "click_seq_45208"
        string_val: "click_seq_55280"
        string_val: "click_seq_76293"
        string_val: "click_seq_1412"
        string_val: "click_seq_165551"
        string_val: "click_seq_69481"
        string_val: "click_seq_27660"
        string_val: "click_seq_4339"
        string_val: "click_seq_136020"
        string_val: "click_seq_46231"
        string_val: "click_seq_5540"
        string_val: "click_seq_1466"
        string_val: "click_seq_71268"
        string_val: "click_seq_2819"
        string_val: "click_seq_8866"
        string_val: "click_seq_45186"
        string_val: "click_seq_5483"
        string_val: "click_seq_30883"
        string_val: "click_seq_82053"
        string_val: "click_seq_3752"
        string_val: "click_seq_93610"
        string_val: "click_seq_2532"
        string_val: "click_seq_34271"
        string_val: "click_seq_104"
        string_val: "click_seq_8908"
        string_val: "click_seq_77798"
        string_val: "click_seq_3169"
        string_val: "click_seq_2488"
        string_val: "click_seq_59421"
        string_val: "click_seq_59387"
        string_val: "click_seq_112788"
        string_val: "click_seq_3696"
        string_val: "click_seq_40732"
        string_val: "click_seq_1592"
        string_val: "click_seq_6020"
        string_val: "click_seq_3496"
        string_val: "click_seq_164753"
        string_val: "click_seq_3150"
        string_val: "click_seq_84637"
        string_val: "click_seq_34405"
        string_val: "rating_counts_1"
        string_val: "click_seq_165"
        string_val: "click_seq_5250"
        string_val: "click_seq_6382"
        string_val: "click_seq_100159"
        string_val: "click_seq_517"
        string_val: "click_seq_7153"
        string_val: "click_seq_1753"
        string_val: "click_seq_5668"
        string_val: "click_seq_103107"
        string_val: "click_seq_4329"
        string_val: "click_seq_53996"
        string_val: "click_seq_101612"
        string_val: "click_seq_1091"
        string_val: "click_seq_63222"
        string_val: "click_seq_3409"
        string_val: "click_seq_1036"
        string_val: "click_seq_33966"
        string_val: "click_seq_223"
        string_val: "click_seq_123545"
        string_val: "click_seq_96832"
        string_val: "click_seq_122892"
        string_val: "click_seq_48744"
        string_val: "click_seq_1454"
        string_val: "click_seq_44759"
        string_val: "click_seq_40819"
        string_val: "click_seq_5573"
        string_val: "click_seq_5197"
        string_val: "click_seq_184987"
        string_val: "click_seq_7451"
        string_val: "click_seq_8033"
        string_val: "click_seq_3167"
        string_val: "click_seq_6188"
        string_val: "click_seq_350"
        string_val: "click_seq_36401"
        string_val: "click_seq_3743"
        string_val: "click_seq_26796"
        string_val: "click_seq_1968"
        string_val: "click_seq_165549"
        string_val: "click_seq_53129"
        string_val: "click_seq_56782"
        string_val: "click_seq_50"
        string_val: "click_seq_118082"
        string_val: "click_seq_147372"
        string_val: "click_seq_5390"
        string_val: "click_seq_4310"
        string_val: "click_seq_32298"
        string_val: "click_seq_3871"
        string_val: "click_seq_5450"
        string_val: "click_seq_6982"
        string_val: "click_seq_6565"
        string_val: "click_seq_133365"
        string_val: "click_seq_8526"
        string_val: "click_seq_2624"
        string_val: "click_seq_5619"
        string_val: "click_seq_60904"
        string_val: "click_seq_193583"
        string_val: "click_seq_5322"
        string_val: "click_seq_27020"
        string_val: "click_seq_4236"
        string_val: "click_seq_141890"
        string_val: "click_seq_1381"
        string_val: "click_seq_86355"
        string_val: "genres_Crime"
        string_val: "click_seq_89090"
        string_val: "screen_year_0"
        string_val: "click_seq_537"
        string_val: "click_seq_8290"
        string_val: "click_seq_37731"
        string_val: "click_seq_1517"
        string_val: "click_seq_135567"
        string_val: "click_seq_133545"
        string_val: "click_seq_106927"
        string_val: "click_seq_27778"
        string_val: "click_seq_7202"
        string_val: "click_seq_27837"
        string_val: "click_seq_748"
        string_val: "click_seq_1101"
        string_val: "click_seq_2372"
        string_val: "click_seq_8587"
        string_val: "click_seq_4578"
        string_val: "click_seq_187541"
        string_val: "click_seq_106785"
        string_val: "click_seq_361"
        string_val: "click_seq_122433"
        string_val: "click_seq_3402"
        string_val: "click_seq_8376"
        string_val: "click_seq_26002"
        string_val: "click_seq_3802"
        string_val: "click_seq_3492"
        string_val: "click_seq_109383"
        string_val: "click_seq_97285"
        string_val: "click_seq_59026"
        string_val: "click_seq_3895"
        string_val: "click_seq_5049"
        string_val: "click_seq_4810"
        string_val: "click_seq_6379"
        string_val: "click_seq_65802"
        string_val: "click_seq_4180"
        string_val: "click_seq_101"
        string_val: "click_seq_60737"
        string_val: "click_seq_88163"
        string_val: "click_seq_5477"
        string_val: "click_seq_46"
        string_val: "click_seq_7320"
        string_val: "click_seq_150401"
        string_val: "click_seq_1616"
        string_val: "click_seq_4171"
        string_val: "click_seq_73431"
        string_val: "click_seq_3981"
        string_val: "click_seq_310"
        string_val: "click_seq_1965"
        string_val: "click_seq_6754"
        string_val: "click_seq_117531"
        string_val: "click_seq_612"
        string_val: "click_seq_37830"
        string_val: "click_seq_78703"
        string_val: "click_seq_2405"
        string_val: "click_seq_4585"
        string_val: "click_seq_4710"
        string_val: "click_seq_176423"
        string_val: "click_seq_6918"
        string_val: "click_seq_30793"
        string_val: "click_seq_3889"
        string_val: "click_seq_1274"
        string_val: "click_seq_2389"
        string_val: "click_seq_1234"
        string_val: "click_seq_4885"
        string_val: "click_seq_6523"
        string_val: "click_seq_3704"
        string_val: "click_seq_2475"
        string_val: "click_seq_41617"
        string_val: "click_seq_51903"
        string_val: "click_seq_78349"
        string_val: "click_seq_79293"
        string_val: "click_seq_129313"
        string_val: "click_seq_1785"
        string_val: "click_seq_132660"
        string_val: "click_seq_3163"
        string_val: "click_seq_526"
        string_val: "click_seq_2472"
        string_val: "click_seq_44731"
        string_val: "click_seq_2451"
        string_val: "click_seq_1305"
        string_val: "click_seq_8979"
        string_val: "click_seq_5849"
        string_val: "click_seq_46530"
        string_val: "click_seq_102800"
        string_val: "click_seq_2741"
        string_val: "click_seq_130444"
        string_val: "click_seq_464"
        string_val: "click_seq_8337"
        string_val: "click_seq_7191"
        string_val: "click_seq_58839"
        string_val: "click_seq_105254"
        string_val: "click_seq_6289"
        string_val: "click_seq_160848"
        string_val: "click_seq_293"
        string_val: "click_seq_5620"
        string_val: "click_seq_2069"
        string_val: "click_seq_82744"
        string_val: "click_seq_4102"
        string_val: "click_seq_140016"
        string_val: "click_seq_103141"
        string_val: "click_seq_70183"
        string_val: "click_seq_129659"
        string_val: "click_seq_4673"
        string_val: "click_seq_6466"
        string_val: "click_seq_95147"
        string_val: "click_seq_27866"
        string_val: "click_seq_171023"
        string_val: "click_seq_68157"
        string_val: "click_seq_73266"
        string_val: "click_seq_133217"
        string_val: "click_seq_37736"
        string_val: "click_seq_1604"
        string_val: "click_seq_5240"
        string_val: "click_seq_84601"
        string_val: "click_seq_183897"
        string_val: "click_seq_107013"
        string_val: "click_seq_87520"
        string_val: "click_seq_1772"
        string_val: "click_seq_136598"
        string_val: "screen_year_2"
        string_val: "click_seq_45361"
        string_val: "click_seq_7080"
        string_val: "click_seq_2025"
        string_val: "click_seq_51935"
        string_val: "click_seq_3214"
        string_val: "click_seq_5493"
        string_val: "click_seq_134783"
        string_val: "click_seq_3280"
        string_val: "click_seq_338"
        string_val: "click_seq_26471"
        string_val: "click_seq_27674"
        string_val: "click_seq_1172"
        string_val: "click_seq_1246"
        string_val: "click_seq_8580"
        string_val: "click_seq_6945"
        string_val: "click_seq_613"
        string_val: "click_seq_6760"
        string_val: "click_seq_3130"
        string_val: "click_seq_1932"
        string_val: "click_seq_40583"
        string_val: "click_seq_26681"
        string_val: "click_seq_2298"
        string_val: "click_seq_5435"
        string_val: "click_seq_53318"
        string_val: "click_seq_138798"
        string_val: "click_seq_67197"
        string_val: "click_seq_127130"
        string_val: "click_seq_51540"
        string_val: "click_seq_98083"
        string_val: "click_seq_750"
        string_val: "click_seq_1953"
        string_val: "click_seq_2080"
        string_val: "click_seq_78620"
        string_val: "click_seq_188"
        string_val: "click_seq_3099"
        string_val: "click_seq_2881"
        string_val: "click_seq_47044"
        string_val: "click_seq_94405"
        string_val: "click_seq_6283"
        string_val: "click_seq_3746"
        string_val: "click_seq_6723"
        string_val: "click_seq_111360"
        string_val: "click_seq_7706"
        string_val: "click_seq_172229"
        string_val: "click_seq_2731"
        string_val: "click_seq_2288"
        string_val: "click_seq_592"
        string_val: "click_seq_39516"
        string_val: "click_seq_159976"
        string_val: "click_seq_6322"
        string_val: "click_seq_3434"
        string_val: "click_seq_234"
        string_val: "click_seq_63436"
        string_val: "click_seq_3634"
        string_val: "click_seq_32392"
        string_val: "click_seq_4463"
        string_val: "click_seq_5747"
        string_val: "click_seq_1054"
        string_val: "click_seq_480"
        string_val: "click_seq_2366"
        string_val: "click_seq_4912"
        string_val: "click_seq_7261"
        string_val: "click_seq_5810"
        string_val: "click_seq_1946"
        string_val: "click_seq_2052"
        string_val: "click_seq_148982"
        string_val: "click_seq_3737"
        string_val: "click_seq_7118"
        string_val: "click_seq_2828"
        string_val: "click_seq_128360"
        string_val: "click_seq_3467"
        string_val: "click_seq_151739"
        string_val: "click_seq_58"
        string_val: "click_seq_765"
        string_val: "click_seq_91658"
        string_val: "click_seq_5665"
        string_val: "click_seq_35807"
        string_val: "click_seq_156706"
        string_val: "click_seq_7107"
        string_val: "click_seq_82093"
        string_val: "click_seq_131480"
        string_val: "click_seq_3143"
        string_val: "click_seq_121"
        string_val: "click_seq_8518"
        string_val: "click_seq_168326"
        string_val: "click_seq_4343"
        string_val: "click_seq_3152"
        string_val: "click_seq_158398"
        string_val: "click_seq_138546"
        string_val: "click_seq_4128"
        string_val: "click_seq_5804"
        string_val: "click_seq_5112"
        string_val: "click_seq_25771"
        string_val: "click_seq_1179"
        string_val: "click_seq_2793"
        string_val: "click_seq_111663"
        string_val: "click_seq_2717"
        string_val: "click_seq_5353"
        string_val: "click_seq_8782"
        string_val: "click_seq_1646"
        string_val: "click_seq_115617"
        string_val: "click_seq_4033"
        string_val: "click_seq_68597"
        string_val: "click_seq_101973"
        string_val: "click_seq_3799"
        string_val: "click_seq_1310"
        string_val: "click_seq_3707"
        string_val: "click_seq_1783"
        string_val: "click_seq_1620"
        string_val: "click_seq_1805"
        string_val: "click_seq_482"
        string_val: "click_seq_8981"
        string_val: "click_seq_43"
        string_val: "click_seq_851"
        string_val: "click_seq_6932"
        string_val: "click_seq_5746"
        string_val: "click_seq_81831"
        string_val: "click_seq_3686"
        string_val: "click_seq_183611"
        string_val: "click_seq_6280"
        string_val: "click_seq_8773"
        string_val: "click_seq_7012"
        string_val: "click_seq_1793"
        string_val: "click_seq_27074"
        string_val: "click_seq_86345"
        string_val: "click_seq_91628"
        string_val: "click_seq_3618"
        string_val: "click_seq_174"
        string_val: "click_seq_6308"
        string_val: "click_seq_57772"
        string_val: "click_seq_1748"
        string_val: "click_seq_140289"
        string_val: "click_seq_3567"
        string_val: "click_seq_8813"
        string_val: "click_seq_1270"
        string_val: "click_seq_26542"
        string_val: "click_seq_2415"
        string_val: "click_seq_142456"
        string_val: "click_seq_7789"
        string_val: "click_seq_2032"
        string_val: "click_seq_6412"
        string_val: "click_seq_3269"
        string_val: "click_seq_93363"
        string_val: "click_seq_68159"
        string_val: "click_seq_54785"
        string_val: "click_seq_1221"
        string_val: "click_seq_3299"
        string_val: "click_seq_47950"
        string_val: "click_seq_112334"
        string_val: "click_seq_176051"
        string_val: "click_seq_116207"
        string_val: "click_seq_1992"
        string_val: "click_seq_111844"
        string_val: "click_seq_3705"
        string_val: "click_seq_44889"
        string_val: "click_seq_1580"
        string_val: "click_seq_26171"
        string_val: "click_seq_26958"
        string_val: "click_seq_4902"
        string_val: "click_seq_337"
        string_val: "click_seq_6662"
        string_val: "click_seq_172547"
        string_val: "click_seq_33138"
        string_val: "click_seq_103339"
        string_val: "click_seq_31116"
        string_val: "click_seq_4103"
        string_val: "click_seq_212"
        string_val: "click_seq_92348"
        string_val: "click_seq_5442"
        string_val: "click_seq_7312"
        string_val: "click_seq_26498"
        string_val: "click_seq_56757"
        string_val: "click_seq_27808"
        string_val: "click_seq_7444"
        string_val: "click_seq_6558"
        string_val: "click_seq_368"
        string_val: "click_seq_53993"
        string_val: "click_seq_2808"
        string_val: "click_seq_6568"
        string_val: "click_seq_2586"
        string_val: "click_seq_52715"
        string_val: "click_seq_6659"
        string_val: "click_seq_187"
        string_val: "click_seq_5238"
        string_val: "click_seq_60069"
        string_val: "click_seq_4291"
        string_val: "click_seq_2002"
        string_val: "click_seq_90428"
        string_val: "click_seq_141004"
        string_val: "click_seq_5093"
        string_val: "click_seq_6427"
        string_val: "click_seq_67295"
        string_val: "click_seq_4700"
        string_val: "click_seq_63768"
        string_val: "click_seq_60735"
        string_val: "click_seq_46347"
        string_val: "click_seq_4141"
        string_val: "click_seq_2889"
        string_val: "click_seq_113275"
        string_val: "click_seq_58306"
        string_val: "click_seq_170837"
        string_val: "click_seq_2137"
        string_val: "click_seq_2671"
        string_val: "click_seq_3477"
        string_val: "click_seq_121097"
        string_val: "click_seq_106487"
        string_val: "click_seq_43396"
        string_val: "click_seq_158956"
        string_val: "click_seq_4520"
        string_val: "click_seq_6016"
        string_val: "click_seq_102378"
        string_val: "click_seq_1216"
        string_val: "click_seq_8952"
        string_val: "click_seq_127198"
        string_val: "click_seq_6357"
        string_val: "click_seq_26554"
        string_val: "click_seq_1034"
        string_val: "click_seq_3052"
        string_val: "click_seq_8042"
        string_val: "click_seq_5663"
        string_val: "click_seq_74458"
        string_val: "click_seq_3243"
        string_val: "click_seq_151557"
        string_val: "click_seq_87660"
        string_val: "click_seq_49793"
        string_val: "click_seq_6636"
        string_val: "click_seq_446"
        string_val: "click_seq_1647"
        string_val: "click_seq_2953"
        string_val: "click_seq_177765"
        string_val: "click_seq_109416"
        string_val: "click_seq_471"
        string_val: "click_seq_142997"
        string_val: "click_seq_27899"
        string_val: "click_seq_2482"
        string_val: "click_seq_116941"
        string_val: "click_seq_58998"
        string_val: "click_seq_4518"
        string_val: "click_seq_131826"
        string_val: "click_seq_6302"
        string_val: "click_seq_225"
        string_val: "click_seq_3301"
        string_val: "click_seq_954"
        string_val: "click_seq_103883"
        string_val: "click_seq_3698"
        string_val: "click_seq_1479"
        string_val: "click_seq_3834"
        string_val: "click_seq_6402"
        string_val: "click_seq_40946"
        string_val: "click_seq_6603"
        string_val: "click_seq_135143"
        string_val: "click_seq_34534"
        string_val: "click_seq_4152"
        string_val: "click_seq_8424"
        string_val: "click_seq_1332"
        string_val: "click_seq_149406"
        string_val: "click_seq_1357"
        string_val: "click_seq_40870"
        string_val: "click_seq_4641"
        string_val: "click_seq_140523"
        string_val: "click_seq_1107"
        string_val: "click_seq_7079"
        string_val: "click_seq_9"
        string_val: "click_seq_7983"
        string_val: "click_seq_32649"
        string_val: "click_seq_8835"
        string_val: "click_seq_6998"
        string_val: "click_seq_105468"
        string_val: "click_seq_8685"
        string_val: "click_seq_1684"
        string_val: "click_seq_4562"
        string_val: "click_seq_71302"
        string_val: "click_seq_3774"
        string_val: "click_seq_296"
        string_val: "click_seq_5745"
        string_val: "click_seq_5959"
        string_val: "click_seq_427"
        string_val: "click_seq_26947"
        string_val: "click_seq_1096"
        string_val: "click_seq_105355"
        string_val: "click_seq_2546"
        string_val: "click_seq_1003"
        string_val: "click_seq_3024"
        string_val: "click_seq_165645"
        string_val: "click_seq_7321"
        string_val: "click_seq_88"
        string_val: "click_seq_46335"
        string_val: "click_seq_46578"
        string_val: "click_seq_3627"
        string_val: "click_seq_27829"
        string_val: "click_seq_4432"
        string_val: "click_seq_141799"
        string_val: "click_seq_56908"
        string_val: "click_seq_6006"
        string_val: "click_seq_49276"
        string_val: "click_seq_813"
        string_val: "click_seq_3606"
        string_val: "click_seq_49286"
        string_val: "click_seq_5612"
        string_val: "click_seq_112940"
        string_val: "click_seq_7477"
        string_val: "click_seq_34"
        string_val: "click_seq_115502"
        string_val: "click_seq_4366"
        string_val: "click_seq_75395"
        string_val: "click_seq_2006"
        string_val: "click_seq_104419"
        string_val: "click_seq_1322"
        string_val: "click_seq_4062"
        string_val: "click_seq_8143"
        string_val: "click_seq_183227"
        string_val: "click_seq_94953"
        string_val: "click_seq_110669"
        string_val: "click_seq_2708"
        string_val: "click_seq_6306"
        string_val: "click_seq_128968"
        string_val: "click_seq_49130"
        string_val: "click_seq_104076"
        string_val: "click_seq_1889"
        string_val: "click_seq_99191"
        string_val: "click_seq_757"
        string_val: "click_seq_8804"
        string_val: "click_seq_3429"
        string_val: "click_seq_4621"
        string_val: "click_seq_2450"
        string_val: "click_seq_1924"
        string_val: "click_seq_78499"
        string_val: "click_seq_6883"
        string_val: "click_seq_32584"
        string_val: "click_seq_2243"
        string_val: "click_seq_43908"
        string_val: "click_seq_4534"
        string_val: "click_seq_1907"
        string_val: "click_seq_79357"
        string_val: "click_seq_82378"
        string_val: "click_seq_8861"
        string_val: "click_seq_5784"
        string_val: "click_seq_105250"
        string_val: "click_seq_94777"
        string_val: "click_seq_7082"
        string_val: "click_seq_77800"
        string_val: "click_seq_5476"
        string_val: "click_seq_138204"
        string_val: "click_seq_4305"
        string_val: "click_seq_4442"
        string_val: "click_seq_7034"
        string_val: "click_seq_7440"
        string_val: "click_seq_112171"
        string_val: "click_seq_407"
        string_val: "click_seq_137595"
        string_val: "click_seq_5900"
        string_val: "click_seq_7460"
        string_val: "click_seq_3418"
        string_val: "click_seq_3400"
        string_val: "click_seq_62999"
        string_val: "click_seq_98203"
        string_val: "click_seq_48738"
        string_val: "click_seq_1210"
        string_val: "click_seq_1261"
        string_val: "click_seq_1230"
        string_val: "click_seq_2081"
        string_val: "click_seq_2590"
        string_val: "click_seq_86320"
        string_val: "click_seq_1114"
        string_val: "click_seq_55995"
        string_val: "click_seq_64839"
        string_val: "click_seq_2542"
        string_val: "click_seq_72737"
        string_val: "click_seq_6373"
        string_val: "click_seq_93272"
        string_val: "click_seq_7457"
        string_val: "click_seq_691"
        string_val: "click_seq_390"
        string_val: "click_seq_173873"
        string_val: "click_seq_26059"
        string_val: "click_seq_3161"
        string_val: "click_seq_4458"
        string_val: "click_seq_5889"
        string_val: "click_seq_64010"
        string_val: "click_seq_3181"
        string_val: "click_seq_5786"
        string_val: "click_seq_161830"
        string_val: "click_seq_173963"
        string_val: "click_seq_1623"
        string_val: "click_seq_3837"
        string_val: "click_seq_64716"
        string_val: "click_seq_40962"
        string_val: "click_seq_6800"
        string_val: "click_seq_1395"
        string_val: "click_seq_51471"
        string_val: "click_seq_95508"
        string_val: "click_seq_1476"
        string_val: "click_seq_48322"
        string_val: "screen_year_4"
        string_val: "click_seq_109687"
        string_val: "click_seq_1502"
        string_val: "click_seq_5609"
        string_val: "click_seq_59131"
        string_val: "click_seq_504"
        string_val: "click_seq_48043"
        string_val: "click_seq_184245"
        string_val: "click_seq_7266"
        string_val: "click_seq_73015"
        string_val: "click_seq_4449"
        string_val: "click_seq_59103"
        string_val: "click_seq_103624"
        string_val: "click_seq_96829"
        string_val: "click_seq_2328"
        string_val: "click_seq_7299"
        string_val: "click_seq_103688"
        string_val: "click_seq_7380"
        string_val: "click_seq_157270"
        string_val: "click_seq_2874"
        string_val: "click_seq_4964"
        string_val: "click_seq_58301"
        string_val: "click_seq_8641"
        string_val: "click_seq_82854"
        string_val: "click_seq_2020"
        string_val: "click_seq_109941"
        string_val: "click_seq_4083"
        string_val: "click_seq_44633"
        string_val: "click_seq_147282"
        string_val: "click_seq_803"
        string_val: "click_seq_27619"
        string_val: "click_seq_120919"
        string_val: "click_seq_1414"
        string_val: "click_seq_3798"
        string_val: "click_seq_77201"
        string_val: "click_seq_5501"
        string_val: "click_seq_4519"
        string_val: "click_seq_4298"
        string_val: "click_seq_1080"
        string_val: "click_seq_59037"
        string_val: "click_seq_74452"
        string_val: "click_seq_164280"
        string_val: "click_seq_1055"
        string_val: "click_seq_3728"
        string_val: "click_seq_90471"
        string_val: "click_seq_5890"
        string_val: "click_seq_1175"
        string_val: "click_seq_4670"
        string_val: "click_seq_79091"
        string_val: "click_seq_1994"
        string_val: "click_seq_5610"
        string_val: "click_seq_7257"
        string_val: "click_seq_5053"
        string_val: "click_seq_534"
        string_val: "click_seq_1255"
        string_val: "click_seq_30822"
        string_val: "click_seq_4517"
        string_val: "click_seq_110611"
        string_val: "click_seq_3643"
        string_val: "click_seq_189547"
        string_val: "click_seq_647"
        string_val: "click_seq_68"
        string_val: "click_seq_1135"
        string_val: "click_seq_96448"
        string_val: "click_seq_33660"
        string_val: "click_seq_2901"
        string_val: "click_seq_2120"
        string_val: "click_seq_4390"
        string_val: "click_seq_4784"
        string_val: "click_seq_1674"
        string_val: "click_seq_4304"
        string_val: "click_seq_103171"
        string_val: "click_seq_100163"
        string_val: "click_seq_157407"
        string_val: "click_seq_7055"
        string_val: "click_seq_5523"
        string_val: "click_seq_8665"
        string_val: "click_seq_113225"
        string_val: "click_seq_107436"
        string_val: "click_seq_7382"
        string_val: "click_seq_38061"
        string_val: "click_seq_56022"
        string_val: "click_seq_4785"
        string_val: "click_seq_2975"
        string_val: "click_seq_798"
        string_val: "click_seq_1856"
        string_val: "click_seq_122922"
        string_val: "click_seq_82"
        string_val: "click_seq_61246"
        string_val: "click_seq_466"
        string_val: "click_seq_2460"
        string_val: "click_seq_6300"
        string_val: "click_seq_69784"
        string_val: "click_seq_37382"
        string_val: "click_seq_26694"
        string_val: "click_seq_5438"
        string_val: "click_seq_4612"
        string_val: "click_seq_4164"
        string_val: "click_seq_2570"
        string_val: "click_seq_27769"
        string_val: "click_seq_2040"
        string_val: "click_seq_166526"
        string_val: "click_seq_58376"
        string_val: "click_seq_4994"
        string_val: "click_seq_1711"
        string_val: "click_seq_1291"
        string_val: "click_seq_31909"
        string_val: "click_seq_4047"
        string_val: "click_seq_187595"
        string_val: "click_seq_5471"
        string_val: "click_seq_369"
        string_val: "click_seq_6349"
        string_val: "click_seq_4372"
        string_val: "click_seq_25825"
        string_val: "click_seq_4677"
        string_val: "click_seq_3616"
        string_val: "click_seq_1004"
        string_val: "click_seq_97665"
        string_val: "click_seq_459"
        string_val: "click_seq_78637"
        string_val: "click_seq_1040"
        string_val: "click_seq_1346"
        string_val: "click_seq_2554"
        string_val: "click_seq_4306"
        string_val: "click_seq_83349"
        string_val: "click_seq_4721"
        string_val: "click_seq_824"
        string_val: "click_seq_53450"
        string_val: "click_seq_7702"
        string_val: "click_seq_7040"
        string_val: "click_seq_81191"
        string_val: "click_seq_327"
        string_val: "click_seq_90738"
        string_val: "click_seq_5961"
        string_val: "click_seq_27251"
        string_val: "click_seq_3836"
        string_val: "click_seq_107338"
        string_val: "click_seq_6186"
        string_val: "click_seq_6454"
        string_val: "click_seq_43560"
        string_val: "click_seq_30846"
        string_val: "click_seq_81087"
        string_val: "click_seq_7164"
        string_val: "click_seq_2391"
        string_val: "click_seq_31700"
        string_val: "click_seq_67361"
        string_val: "click_seq_4816"
        string_val: "click_seq_91104"
        string_val: "click_seq_31445"
        string_val: "click_seq_98230"
        string_val: "click_seq_5553"
        string_val: "click_seq_74946"
        string_val: "click_seq_115969"
        string_val: "click_seq_78574"
        string_val: "click_seq_79134"
        string_val: "click_seq_101531"
        string_val: "click_seq_5951"
        string_val: "click_seq_93443"
        string_val: "click_seq_7307"
        string_val: "click_seq_4736"
        string_val: "click_seq_134393"
        string_val: "click_seq_4326"
        string_val: "click_seq_5876"
        string_val: "click_seq_107565"
        string_val: "click_seq_1116"
        string_val: "click_seq_134808"
        string_val: "click_seq_188189"
        string_val: "click_seq_75813"
        string_val: "click_seq_3755"
        string_val: "click_seq_45728"
        string_val: "click_seq_1875"
        string_val: "click_seq_5165"
        string_val: "click_seq_3539"
        string_val: "click_seq_282"
        string_val: "click_seq_7301"
        string_val: "click_seq_101112"
        string_val: "click_seq_118198"
        string_val: "click_seq_1112"
        string_val: "click_seq_3210"
        string_val: "click_seq_95307"
        string_val: "click_seq_109042"
        string_val: "click_seq_15"
        string_val: "click_seq_6579"
        string_val: "click_seq_1180"
        string_val: "click_seq_91126"
        string_val: "click_seq_49132"
        string_val: "click_seq_7211"
        string_val: "click_seq_103042"
        string_val: "click_seq_140541"
        string_val: "click_seq_172825"
        string_val: "click_seq_92420"
        string_val: "click_seq_1881"
        string_val: "click_seq_6537"
        string_val: "click_seq_nan"
        string_val: "click_seq_148626"
        string_val: "click_seq_6383"
        string_val: "click_seq_26614"
        string_val: "click_seq_59126"
        string_val: "click_seq_1980"
        string_val: "click_seq_87234"
        string_val: "click_seq_5949"
        string_val: "click_seq_32296"
        string_val: "click_seq_184015"
        string_val: "click_seq_5589"
        string_val: "click_seq_107945"
        string_val: "click_seq_6975"
        string_val: "click_seq_915"
        string_val: "click_seq_83270"
        string_val: "click_seq_662"
        string_val: "click_seq_3394"
        string_val: "click_seq_52283"
        string_val: "click_seq_4043"
        string_val: "click_seq_52042"
        string_val: "click_seq_1267"
        string_val: "click_seq_3007"
        string_val: "click_seq_2015"
        string_val: "click_seq_1088"
        string_val: "click_seq_869"
        string_val: "click_seq_4878"
        string_val: "click_seq_505"
        string_val: "click_seq_115065"
        string_val: "click_seq_34292"
        string_val: "click_seq_17"
        string_val: "click_seq_971"
        string_val: "click_seq_104457"
        string_val: "click_seq_4175"
        string_val: "click_seq_3043"
        string_val: "click_seq_93"
        string_val: "click_seq_96975"
        string_val: "click_seq_106642"
        string_val: "click_seq_4744"
        string_val: "click_seq_6797"
        string_val: "click_seq_90249"
        string_val: "click_seq_4268"
        string_val: "click_seq_1702"
        string_val: "click_seq_2956"
        string_val: "click_seq_6820"
        string_val: "click_seq_2500"
        string_val: "click_seq_3989"
        string_val: "click_seq_70"
        string_val: "click_seq_64983"
        string_val: "click_seq_129011"
        string_val: "click_seq_961"
        string_val: "click_seq_943"
        string_val: "click_seq_50798"
        string_val: "click_seq_34326"
        string_val: "click_seq_5872"
        string_val: "click_seq_2126"
        string_val: "click_seq_3952"
        string_val: "click_seq_72692"
        string_val: "click_seq_139855"
        string_val: "click_seq_173"
        string_val: "click_seq_4826"
        string_val: "click_seq_259"
        string_val: "click_seq_5644"
        string_val: "click_seq_165483"
        string_val: "click_seq_6453"
        string_val: "click_seq_78469"
        string_val: "click_seq_5452"
        string_val: "click_seq_80858"
        string_val: "click_seq_2111"
        string_val: "click_seq_3690"
        string_val: "click_seq_113186"
        string_val: "click_seq_158035"
        string_val: "click_seq_132"
        string_val: "click_seq_1253"
        string_val: "click_seq_116505"
        string_val: "click_seq_103219"
        string_val: "click_seq_4852"
        string_val: "click_seq_7481"
        string_val: "click_seq_134214"
        string_val: "click_seq_54281"
        string_val: "click_seq_46948"
        string_val: "click_seq_50842"
        string_val: "click_seq_1900"
        string_val: "click_seq_92259"
        string_val: "click_seq_741"
        string_val: "click_seq_151559"
        string_val: "click_seq_50601"
        string_val: "click_seq_99114"
        string_val: "click_seq_148956"
        string_val: "click_seq_113278"
        string_val: "click_seq_726"
        string_val: "click_seq_249"
        string_val: "click_seq_637"
        string_val: "click_seq_6990"
        string_val: "click_seq_5312"
        string_val: "click_seq_8814"
        string_val: "click_seq_4611"
        string_val: "click_seq_76763"
        string_val: "click_seq_57910"
        string_val: "click_seq_55492"
        string_val: "click_seq_163653"
        string_val: "click_seq_141816"
        string_val: "click_seq_2474"
        string_val: "click_seq_3107"
        string_val: "click_seq_4342"
        string_val: "click_seq_4441"
        string_val: "click_seq_31193"
        string_val: "click_seq_135456"
        string_val: "click_seq_25996"
        string_val: "click_seq_3259"
        string_val: "click_seq_3859"
        string_val: "click_seq_3669"
        string_val: "click_seq_26612"
        string_val: "click_seq_433"
        string_val: "click_seq_3697"
        string_val: "click_seq_160080"
        string_val: "click_seq_73881"
        string_val: "click_seq_3719"
        string_val: "click_seq_3390"
        string_val: "click_seq_37857"
        string_val: "click_seq_2962"
        string_val: "click_seq_8969"
        string_val: "click_seq_2185"
        string_val: "click_seq_8799"
        string_val: "click_seq_98122"
        string_val: "click_seq_137859"
        string_val: "click_seq_122916"
        string_val: "click_seq_72998"
        string_val: "click_seq_1837"
        string_val: "click_seq_6832"
        string_val: "click_seq_40723"
        string_val: "click_seq_8753"
        string_val: "click_seq_182731"
        string_val: "click_seq_60074"
        string_val: "click_seq_265"
        string_val: "click_seq_27772"
        string_val: "click_seq_8915"
        string_val: "click_seq_4808"
        string_val: "click_seq_593"
        string_val: "click_seq_42004"
        string_val: "click_seq_103685"
        string_val: "click_seq_93270"
        string_val: "click_seq_91653"
        string_val: "click_seq_116799"
        string_val: "click_seq_5099"
        string_val: "click_seq_7492"
        string_val: "click_seq_2456"
        string_val: "click_seq_139644"
        string_val: "click_seq_861"
        string_val: "click_seq_736"
        string_val: "click_seq_4383"
        string_val: "click_seq_302"
        string_val: "click_seq_104944"
        string_val: "click_seq_648"
        string_val: "click_seq_1673"
        string_val: "click_seq_8838"
        string_val: "click_seq_60037"
        string_val: "click_seq_3549"
        string_val: "click_seq_2096"
        string_val: "click_seq_298"
        string_val: "click_seq_3089"
        string_val: "click_seq_27683"
        string_val: "click_seq_79592"
        string_val: "click_seq_27563"
        string_val: "click_seq_65685"
        string_val: "click_seq_76030"
        string_val: "click_seq_7579"
        string_val: "click_seq_1247"
        string_val: "click_seq_32011"
        string_val: "click_seq_4705"
        string_val: "click_seq_4146"
        string_val: "click_seq_1731"
        string_val: "click_seq_162082"
        string_val: "click_seq_2713"
        string_val: "click_seq_3801"
        string_val: "click_seq_5433"
        string_val: "click_seq_48342"
        string_val: "click_seq_1475"
        string_val: "click_seq_5410"
        string_val: "click_seq_145"
        string_val: "click_seq_4713"
        string_val: "click_seq_112749"
        string_val: "click_seq_5136"
        string_val: "click_seq_180987"
        string_val: "click_seq_605"
        string_val: "click_seq_158972"
        string_val: "click_seq_118354"
        string_val: "click_seq_69860"
        string_val: "click_seq_4616"
        string_val: "click_seq_2329"
        string_val: "click_seq_108928"
        string_val: "click_seq_3062"
        string_val: "click_seq_924"
        string_val: "click_seq_198"
        string_val: "click_seq_86922"
        string_val: "click_seq_8860"
        string_val: "click_seq_32657"
        string_val: "click_seq_7243"
        string_val: "click_seq_2872"
        string_val: "click_seq_8636"
        string_val: "click_seq_379"
        string_val: "click_seq_5840"
        string_val: "click_seq_34536"
        string_val: "click_seq_165075"
        string_val: "click_seq_7812"
        string_val: "click_seq_163134"
        string_val: "click_seq_918"
        string_val: "click_seq_1696"
        string_val: "click_seq_34437"
        string_val: "click_seq_1104"
        string_val: "click_seq_3899"
        string_val: "click_seq_7008"
        string_val: "click_seq_3967"
        string_val: "genres_Comedy"
        string_val: "click_seq_1376"
        string_val: "click_seq_27706"
        string_val: "click_seq_6374"
        string_val: "click_seq_7377"
        string_val: "click_seq_842"
        string_val: "click_seq_239"
        string_val: "click_seq_2272"
        string_val: "click_seq_69118"
        string_val: "click_seq_6193"
        string_val: "click_seq_143367"
        string_val: "click_seq_6281"
        string_val: "click_seq_8236"
        string_val: "click_seq_881"
        string_val: "click_seq_8094"
        string_val: "click_seq_839"
        string_val: "click_seq_47491"
        string_val: "click_seq_50923"
        string_val: "click_seq_90343"
        string_val: "click_seq_733"
        string_val: "click_seq_65130"
        string_val: "click_seq_6553"
        string_val: "click_seq_1760"
        string_val: "click_seq_91842"
        string_val: "click_seq_156553"
        string_val: "rating_mean_3"
        string_val: "click_seq_3947"
        string_val: "click_seq_1287"
        string_val: "click_seq_113862"
        string_val: "click_seq_2402"
        string_val: "click_seq_1984"
        string_val: "click_seq_104863"
        string_val: "click_seq_6664"
        string_val: "click_seq_102217"
        string_val: "click_seq_8529"
        string_val: "click_seq_30812"
        string_val: "click_seq_1685"
        string_val: "click_seq_7036"
        string_val: "click_seq_6506"
        string_val: "click_seq_3384"
        string_val: "click_seq_26778"
        string_val: "click_seq_7728"
        string_val: "click_seq_36529"
        string_val: "click_seq_62081"
        string_val: "click_seq_697"
        string_val: "click_seq_4231"
        string_val: "click_seq_513"
        string_val: "click_seq_7982"
        string_val: "click_seq_2791"
        string_val: "click_seq_785"
        string_val: "click_seq_3201"
        string_val: "click_seq_405"
        string_val: "click_seq_3408"
        string_val: "click_seq_4225"
        string_val: "click_seq_55844"
        string_val: "click_seq_7845"
        string_val: "click_seq_2942"
        string_val: "click_seq_1144"
        string_val: "click_seq_92509"
        string_val: "click_seq_908"
        string_val: "click_seq_5075"
        string_val: "click_seq_93723"
        string_val: "click_seq_6619"
        string_val: "click_seq_4775"
        string_val: "click_seq_4263"
        string_val: "click_seq_8270"
        string_val: "click_seq_96567"
        string_val: "click_seq_5155"
        string_val: "click_seq_175431"
        string_val: "click_seq_2175"
        string_val: "click_seq_4613"
        string_val: "click_seq_1589"
        string_val: "click_seq_1762"
        string_val: "click_seq_27850"
        string_val: "click_seq_105"
        string_val: "click_seq_31804"
        string_val: "click_seq_98809"
        string_val: "click_seq_1922"
        string_val: "click_seq_6994"
        string_val: "click_seq_75816"
        string_val: "click_seq_167746"
        string_val: "click_seq_2514"
        string_val: "click_seq_79798"
        string_val: "click_seq_6002"
        string_val: "click_seq_152711"
        string_val: "click_seq_6111"
        string_val: "click_seq_48142"
        string_val: "click_seq_57421"
        string_val: "click_seq_1446"
        string_val: "click_seq_118880"
        string_val: "click_seq_5316"
        string_val: "click_seq_531"
        string_val: "click_seq_2312"
        string_val: "click_seq_3159"
        string_val: "click_seq_99149"
        string_val: "click_seq_7294"
        string_val: "click_seq_27426"
        string_val: "genres_Musical"
        string_val: "click_seq_3073"
        string_val: "click_seq_193565"
        string_val: "click_seq_6862"
        string_val: "click_seq_3307"
        string_val: "click_seq_87485"
        string_val: "click_seq_4069"
        string_val: "click_seq_3077"
        string_val: "click_seq_3984"
        string_val: "click_seq_4789"
        string_val: "click_seq_5772"
        string_val: "click_seq_54745"
        string_val: "click_seq_6850"
        string_val: "click_seq_909"
        string_val: "click_seq_1950"
        string_val: "click_seq_103245"
        string_val: "click_seq_2774"
        string_val: "click_seq_70293"
        string_val: "click_seq_71535"
        string_val: "click_seq_69988"
        string_val: "click_seq_117630"
        string_val: "click_seq_3955"
        string_val: "click_seq_2012"
        string_val: "click_seq_26258"
        string_val: "click_seq_51884"
        string_val: "click_seq_128944"
        string_val: "click_seq_168366"
        string_val: "click_seq_7155"
        string_val: "click_seq_3766"
        string_val: "click_seq_177763"
        string_val: "click_seq_2537"
        string_val: "click_seq_7704"
        string_val: "click_seq_7458"
        string_val: "click_seq_5323"
        string_val: "click_seq_48416"
        string_val: "click_seq_116977"
        string_val: "click_seq_5328"
        string_val: "click_seq_8815"
        string_val: "click_seq_185029"
        string_val: "click_seq_1078"
        string_val: "click_seq_149"
        string_val: "click_seq_64197"
        string_val: "click_seq_4529"
        string_val: "click_seq_5422"
        string_val: "click_seq_1285"
        string_val: "click_seq_113532"
        string_val: "click_seq_65188"
        string_val: "click_seq_7121"
        string_val: "click_seq_3857"
        string_val: "click_seq_92494"
        string_val: "click_seq_1986"
        string_val: "click_seq_8147"
        string_val: "click_seq_663"
        string_val: "click_seq_1972"
        string_val: "click_seq_1973"
        string_val: "click_seq_34542"
        string_val: "click_seq_808"
        string_val: "click_seq_87028"
        string_val: "click_seq_27821"
        string_val: "click_seq_105720"
        string_val: "click_seq_5912"
        string_val: "click_seq_595"
        string_val: "click_seq_2186"
        string_val: "click_seq_94478"
        string_val: "click_seq_4969"
        string_val: "click_seq_122904"
        string_val: "click_seq_4629"
        string_val: "click_seq_3341"
        string_val: "click_seq_2278"
        string_val: "click_seq_137863"
        string_val: "click_seq_4129"
        string_val: "click_seq_61289"
        string_val: "click_seq_6033"
        string_val: "click_seq_71252"
        string_val: "click_seq_71810"
        string_val: "click_seq_95175"
        string_val: "click_seq_5919"
        string_val: "click_seq_4881"
        string_val: "click_seq_3641"
        string_val: "click_seq_55261"
        string_val: "click_seq_79897"
        string_val: "click_seq_63062"
        string_val: "click_seq_8743"
        string_val: "click_seq_3553"
        string_val: "click_seq_34330"
        string_val: "click_seq_180777"
        string_val: "click_seq_8611"
        string_val: "click_seq_2422"
        string_val: "click_seq_30"
        string_val: "click_seq_51545"
        string_val: "click_seq_139994"
        string_val: "click_seq_137"
        string_val: "click_seq_45175"
        string_val: "click_seq_6911"
        string_val: "click_seq_27838"
        string_val: "click_seq_378"
        string_val: "click_seq_1024"
        string_val: "click_seq_71823"
        string_val: "click_seq_2935"
        string_val: "click_seq_206"
        string_val: "click_seq_1251"
        string_val: "click_seq_6777"
        string_val: "click_seq_159441"
        string_val: "click_seq_83177"
        string_val: "click_seq_2481"
        string_val: "click_seq_107780"
        string_val: "click_seq_3586"
        string_val: "click_seq_44022"
        string_val: "click_seq_4815"
        string_val: "click_seq_62439"
        string_val: "click_seq_8137"
        string_val: "click_seq_7251"
        string_val: "click_seq_5181"
        string_val: "click_seq_2617"
        string_val: "click_seq_193571"
        string_val: "click_seq_423"
        string_val: "click_seq_4388"
        string_val: "click_seq_1235"
        string_val: "click_seq_144976"
        string_val: "click_seq_6951"
        string_val: "click_seq_25752"
        string_val: "click_seq_60030"
        string_val: "click_seq_3559"
        string_val: "click_seq_1111"
        string_val: "click_seq_118166"
        string_val: "click_seq_57522"
        string_val: "click_seq_116138"
        string_val: "click_seq_54934"
        string_val: "click_seq_113252"
        string_val: "click_seq_70533"
        string_val: "click_seq_3950"
        string_val: "click_seq_2182"
        string_val: "click_seq_2506"
        string_val: "click_seq_4783"
        string_val: "click_seq_4634"
        string_val: "click_seq_58876"
        string_val: "rating_mean_1"
        string_val: "click_seq_143559"
        string_val: "click_seq_2806"
        string_val: "click_seq_99437"
        string_val: "click_seq_165103"
        string_val: "click_seq_4488"
        string_val: "click_seq_4345"
        string_val: "click_seq_3653"
        string_val: "click_seq_8644"
        string_val: "click_seq_5678"
        string_val: "click_seq_2979"
        string_val: "click_seq_175661"
        string_val: "click_seq_70305"
        string_val: "click_seq_453"
        string_val: "click_seq_102481"
        string_val: "click_seq_4452"
        string_val: "click_seq_8492"
        string_val: "click_seq_167790"
        string_val: "click_seq_55253"
        string_val: "click_seq_72424"
        string_val: "click_seq_5255"
        string_val: "click_seq_144620"
        string_val: "click_seq_8253"
        string_val: "click_seq_165843"
        string_val: "click_seq_72104"
        string_val: "click_seq_71264"
        string_val: "click_seq_6944"
        string_val: "click_seq_7361"
        string_val: "click_seq_2526"
        string_val: "click_seq_52831"
        string_val: "click_seq_50802"
        string_val: "click_seq_7930"
        string_val: "click_seq_183197"
        string_val: "click_seq_100611"
        string_val: "click_seq_5039"
        string_val: "click_seq_139717"
        string_val: "click_seq_6571"
        string_val: "click_seq_87483"
        string_val: "click_seq_866"
        string_val: "click_seq_25827"
        string_val: "click_seq_1350"
        string_val: "click_seq_5419"
        string_val: "click_seq_166461"
        string_val: "click_seq_3993"
        string_val: "click_seq_57640"
        string_val: "click_seq_2104"
        string_val: "click_seq_95377"
        string_val: "click_seq_2332"
        string_val: "click_seq_4787"
        string_val: "click_seq_44189"
        string_val: "click_seq_138186"
        string_val: "click_seq_78467"
        string_val: "click_seq_141668"
        string_val: "click_seq_3179"
        string_val: "click_seq_3287"
        string_val: "click_seq_1610"
        string_val: "click_seq_583"
        string_val: "click_seq_6386"
        string_val: "click_seq_5423"
        string_val: "click_seq_102602"
        string_val: "click_seq_2390"
        string_val: "click_seq_58078"
        string_val: "click_seq_74688"
        string_val: "click_seq_3120"
        string_val: "click_seq_45969"
        string_val: "click_seq_852"
        string_val: "click_seq_96691"
        string_val: "click_seq_8128"
        string_val: "click_seq_101283"
        string_val: "click_seq_26999"
        string_val: "click_seq_9010"
        string_val: "click_seq_6696"
        string_val: "click_seq_1167"
        string_val: "click_seq_87522"
        string_val: "click_seq_3972"
        string_val: "click_seq_40697"
        string_val: "click_seq_695"
        string_val: "click_seq_49688"
        string_val: "click_seq_7007"
        string_val: "click_seq_27416"
        string_val: "click_seq_6615"
        string_val: "click_seq_1407"
        string_val: "click_seq_990"
        string_val: "click_seq_4121"
        string_val: "click_seq_7727"
        string_val: "click_seq_53"
        string_val: "click_seq_329"
        string_val: "click_seq_2038"
        string_val: "click_seq_2340"
        string_val: "click_seq_2150"
        string_val: "click_seq_136297"
        string_val: "click_seq_4697"
        string_val: "click_seq_343"
        string_val: "click_seq_8724"
        string_val: "click_seq_142222"
        string_val: "click_seq_3329"
        string_val: "click_seq_106002"
        string_val: "click_seq_128520"
        string_val: "click_seq_8796"
        string_val: "click_seq_170697"
        string_val: "click_seq_7050"
        string_val: "click_seq_5072"
        string_val: "click_seq_118248"
        string_val: "click_seq_148888"
        string_val: "click_seq_3257"
        string_val: "click_seq_106330"
        string_val: "click_seq_33794"
        string_val: "click_seq_932"
        string_val: "click_seq_103810"
        string_val: "click_seq_142372"
        string_val: "click_seq_5247"
        string_val: "click_seq_6303"
        string_val: "click_seq_27878"
        string_val: "click_seq_104875"
        string_val: "click_seq_4147"
        string_val: "click_seq_201"
        string_val: "click_seq_2967"
        string_val: "click_seq_47894"
        string_val: "click_seq_26741"
        string_val: "click_seq_6197"
        string_val: "click_seq_8874"
        string_val: "click_seq_130052"
        string_val: "click_seq_50806"
        string_val: "click_seq_7222"
        string_val: "click_seq_1213"
        string_val: "click_seq_3219"
        string_val: "click_seq_124273"
        string_val: "click_seq_59295"
        string_val: "click_seq_6217"
        string_val: "click_seq_82202"
        string_val: "click_seq_66198"
        string_val: "click_seq_69720"
        string_val: "click_seq_183199"
        string_val: "click_seq_142444"
        string_val: "click_seq_165671"
        string_val: "click_seq_4354"
        string_val: "click_seq_3494"
        string_val: "click_seq_7570"
        string_val: "click_seq_163386"
        string_val: "click_seq_31083"
        string_val: "click_seq_26777"
        string_val: "click_seq_575"
        string_val: "click_seq_4899"
        string_val: "click_seq_8966"
        string_val: "click_seq_2187"
        string_val: "click_seq_43679"
        string_val: "click_seq_3587"
        string_val: "click_seq_2924"
        string_val: "click_seq_2056"
        string_val: "click_seq_69524"
        string_val: "click_seq_91671"
        string_val: "click_seq_26492"
        string_val: "click_seq_706"
        string_val: "click_seq_6996"
        string_val: "click_seq_5980"
        string_val: "click_seq_89427"
        string_val: "click_seq_55290"
        string_val: "click_seq_5377"
        string_val: "click_seq_2744"
        string_val: "click_seq_3102"
        string_val: "click_seq_26736"
        string_val: "click_seq_27820"
        string_val: "click_seq_6979"
        string_val: "click_seq_3391"
        string_val: "click_seq_173205"
        string_val: "click_seq_77414"
        string_val: "click_seq_136511"
        string_val: "click_seq_64249"
        string_val: "click_seq_1934"
        string_val: "click_seq_26645"
        string_val: "click_seq_131920"
        string_val: "click_seq_6722"
        string_val: "click_seq_2919"
        string_val: "click_seq_1518"
        string_val: "click_seq_96"
        string_val: "click_seq_31150"
        string_val: "click_seq_2737"
        string_val: "click_seq_68932"
        string_val: "click_seq_6699"
        string_val: "click_seq_102033"
        string_val: "click_seq_55292"
        string_val: "click_seq_111800"
        string_val: "click_seq_4945"
        string_val: "click_seq_3484"
        string_val: "click_seq_488"
        string_val: "click_seq_5628"
        string_val: "click_seq_2240"
        string_val: "click_seq_4464"
        string_val: "click_seq_27022"
        string_val: "click_seq_27555"
        string_val: "click_seq_5325"
        string_val: "click_seq_132800"
        string_val: "click_seq_468"
        string_val: "click_seq_34162"
        string_val: "click_seq_54995"
        string_val: "click_seq_3906"
        string_val: "click_seq_3190"
        string_val: "click_seq_73858"
        string_val: "click_seq_4090"
        string_val: "click_seq_3724"
        string_val: "click_seq_55282"
        string_val: "click_seq_60072"
        string_val: "click_seq_147662"
        string_val: "click_seq_1011"
        string_val: "click_seq_4115"
        string_val: "click_seq_6517"
        string_val: "click_seq_41285"
        string_val: "click_seq_1996"
        string_val: "click_seq_4516"
        string_val: "click_seq_177"
        string_val: "click_seq_71429"
        string_val: "click_seq_4527"
        string_val: "click_seq_118696"
        string_val: "click_seq_2594"
        string_val: "click_seq_935"
        string_val: "click_seq_31664"
        string_val: "click_seq_60522"
        string_val: "click_seq_44840"
        string_val: "click_seq_1948"
        string_val: "click_seq_4723"
        string_val: "click_seq_6239"
        string_val: "click_seq_95633"
        string_val: "click_seq_2227"
        string_val: "click_seq_579"
        string_val: "click_seq_47566"
        string_val: "click_seq_173351"
        string_val: "click_seq_2977"
        string_val: "click_seq_170945"
        string_val: "click_seq_6827"
        string_val: "click_seq_85401"
        string_val: "click_seq_1304"
        string_val: "click_seq_133419"
        string_val: "click_seq_4234"
        string_val: "click_seq_3928"
        string_val: "click_seq_3519"
        string_val: "click_seq_4433"
        string_val: "click_seq_96610"
        string_val: "click_seq_173291"
        string_val: "click_seq_2392"
        string_val: "click_seq_91325"
        string_val: "click_seq_6107"
        string_val: "click_seq_1374"
        string_val: "click_seq_1876"
        string_val: "click_seq_47124"
        string_val: "click_seq_1771"
        string_val: "click_seq_7184"
        string_val: "click_seq_184791"
        string_val: "click_seq_159061"
        string_val: "click_seq_7108"
        string_val: "click_seq_2019"
        string_val: "click_seq_84847"
        string_val: "click_seq_955"
        string_val: "click_seq_1185"
        string_val: "click_seq_155659"
        string_val: "click_seq_6375"
        string_val: "click_seq_1894"
        string_val: "click_seq_2917"
        string_val: "click_seq_113780"
        string_val: "click_seq_3156"
        string_val: "click_seq_1826"
        string_val: "click_seq_41571"
        string_val: "click_seq_8293"
        string_val: "click_seq_122886"
        string_val: "click_seq_53460"
        string_val: "click_seq_7884"
        string_val: "click_seq_96821"
        string_val: "click_seq_8638"
        string_val: "click_seq_3783"
        string_val: "click_seq_5797"
        string_val: "click_seq_60389"
        string_val: "click_seq_26838"
        string_val: "click_seq_1431"
        string_val: "click_seq_4052"
        string_val: "click_seq_3448"
        string_val: "click_seq_88345"
        string_val: "click_seq_2360"
        string_val: "click_seq_61729"
        string_val: "click_seq_89305"
        string_val: "click_seq_161918"
        string_val: "click_seq_185435"
        string_val: "click_seq_3832"
        string_val: "click_seq_2112"
        string_val: "click_seq_3948"
        string_val: "click_seq_106491"
        string_val: "click_seq_85179"
        string_val: "click_seq_30850"
        string_val: "click_seq_5116"
        string_val: "click_seq_167370"
        string_val: "click_seq_202"
        string_val: "click_seq_112460"
        string_val: "click_seq_8917"
        string_val: "click_seq_1694"
        string_val: "click_seq_27408"
        string_val: "click_seq_162344"
        string_val: "click_seq_3512"
        string_val: "click_seq_162478"
        string_val: "click_seq_435"
        string_val: "click_seq_79428"
        string_val: "click_seq_30848"
        string_val: "click_seq_4929"
        string_val: "click_seq_32632"
        string_val: "click_seq_184721"
        string_val: "click_seq_552"
        string_val: "click_seq_51666"
        string_val: "click_seq_4942"
        string_val: "click_seq_97913"
        string_val: "click_seq_8207"
        string_val: "click_seq_1252"
        string_val: "click_seq_140481"
        string_val: "click_seq_89118"
        string_val: "click_seq_661"
        string_val: "click_seq_55071"
        string_val: "click_seq_122918"
        string_val: "click_seq_7762"
        string_val: "click_seq_134881"
        string_val: "click_seq_917"
        string_val: "click_seq_2535"
        string_val: "click_seq_129397"
        string_val: "click_seq_351"
        string_val: "click_seq_5570"
        string_val: "click_seq_5508"
        string_val: "click_seq_3284"
        string_val: "click_seq_5853"
        string_val: "click_seq_199"
        string_val: "click_seq_7088"
        string_val: "click_seq_27692"
        string_val: "click_seq_4407"
        string_val: "click_seq_27803"
        string_val: "click_seq_5580"
        string_val: "click_seq_4635"
        string_val: "click_seq_79073"
        string_val: "click_seq_49822"
        string_val: "click_seq_1083"
        string_val: "click_seq_81834"
        string_val: "click_seq_366"
        string_val: "click_seq_8528"
        string_val: "click_seq_7131"
        string_val: "click_seq_2408"
        string_val: "click_seq_7037"
        string_val: "click_seq_1207"
        string_val: "click_seq_26696"
        string_val: "click_seq_37853"
        string_val: "click_seq_132584"
        string_val: "click_seq_5428"
        string_val: "click_seq_89492"
        string_val: "click_seq_41863"
        string_val: "click_seq_86059"
        string_val: "click_seq_5076"
        string_val: "click_seq_1503"
        string_val: "click_seq_8521"
        string_val: "click_seq_81535"
        string_val: "click_seq_26052"
        string_val: "click_seq_55278"
        string_val: "click_seq_1726"
        string_val: "click_seq_72714"
        string_val: "click_seq_149330"
        string_val: "click_seq_27904"
        string_val: "click_seq_3264"
        string_val: "click_seq_55946"
        string_val: "click_seq_1606"
        string_val: "click_seq_135133"
        string_val: "click_seq_46850"
        string_val: "click_seq_6572"
        string_val: "click_seq_2164"
        string_val: "click_seq_87529"
        string_val: "click_seq_150"
        string_val: "click_seq_674"
        string_val: "click_seq_3997"
        string_val: "click_seq_7302"
        string_val: "click_seq_1676"
        string_val: "click_seq_728"
        string_val: "click_seq_1954"
        string_val: "click_seq_2664"
        string_val: "click_seq_6062"
        string_val: "click_seq_33310"
        string_val: "click_seq_1569"
        string_val: "click_seq_2729"
        string_val: "click_seq_5954"
        string_val: "click_seq_2896"
        string_val: "click_seq_4443"
        string_val: "click_seq_650"
        string_val: "click_seq_88515"
        string_val: "click_seq_130976"
        string_val: "click_seq_2252"
        string_val: "click_seq_685"
        string_val: "click_seq_26453"
        string_val: "click_seq_3701"
        string_val: "click_seq_1999"
        string_val: "click_seq_858"
        string_val: "click_seq_52712"
        string_val: "click_seq_27815"
        string_val: "click_seq_5258"
        string_val: "click_seq_5710"
        string_val: "click_seq_164909"
        string_val: "click_seq_5385"
        string_val: "click_seq_633"
        string_val: "click_seq_1857"
        string_val: "click_seq_906"
        string_val: "click_seq_6961"
        string_val: "click_seq_112"
        string_val: "click_seq_618"
        string_val: "click_seq_71867"
        string_val: "click_seq_96283"
        string_val: "click_seq_36289"
        string_val: "click_seq_6551"
        string_val: "click_seq_4247"
        string_val: "click_seq_9018"
        string_val: "click_seq_1343"
        string_val: "click_seq_1982"
        string_val: "click_seq_7572"
        string_val: "click_seq_1232"
        string_val: "click_seq_135532"
        string_val: "click_seq_2393"
        string_val: "click_seq_7000"
        string_val: "click_seq_33615"
        string_val: "click_seq_117192"
        string_val: "click_seq_1600"
        string_val: "click_seq_703"
        string_val: "click_seq_6333"
        string_val: "click_seq_140737"
        string_val: "click_seq_3057"
        string_val: "click_seq_4205"
        string_val: "click_seq_61123"
        string_val: "click_seq_1089"
        string_val: "click_seq_5321"
        string_val: "click_seq_151315"
        string_val: "click_seq_78316"
        string_val: "click_seq_108078"
        string_val: "click_seq_243"
        string_val: "click_seq_172215"
        string_val: "click_seq_1394"
        string_val: "click_seq_3998"
        string_val: "click_seq_1468"
        string_val: "click_seq_3942"
        string_val: "click_seq_116963"
        string_val: "click_seq_1887"
        string_val: "click_seq_4027"
        string_val: "click_seq_120130"
        string_val: "click_seq_8961"
        string_val: "click_seq_120813"
        string_val: "click_seq_31660"
        string_val: "click_seq_2859"
        string_val: "click_seq_43744"
        string_val: "click_seq_172705"
        string_val: "click_seq_951"
        string_val: "click_seq_6596"
        string_val: "click_seq_188797"
        string_val: "click_seq_370"
        string_val: "click_seq_49220"
        string_val: "click_seq_41"
        string_val: "click_seq_56176"
        string_val: "click_seq_52319"
        string_val: "click_seq_158022"
        string_val: "click_seq_216"
        string_val: "click_seq_136443"
        string_val: "click_seq_5577"
        string_val: "click_seq_2057"
        string_val: "click_seq_4214"
        string_val: "click_seq_928"
        string_val: "click_seq_7360"
        string_val: "click_seq_6948"
        string_val: "click_seq_6950"
        string_val: "click_seq_5522"
        string_val: "click_seq_5749"
        string_val: "click_seq_65738"
        string_val: "click_seq_39801"
        string_val: "click_seq_2580"
        string_val: "click_seq_146656"
        string_val: "click_seq_51575"
        string_val: "click_seq_2905"
        string_val: "click_seq_177285"
        string_val: "click_seq_6452"
        string_val: "click_seq_2501"
        string_val: "click_seq_640"
        string_val: "click_seq_4193"
        string_val: "click_seq_116985"
        string_val: "click_seq_8712"
        string_val: "click_seq_2140"
        string_val: "click_seq_61406"
        string_val: "click_seq_3809"
        string_val: "click_seq_4709"
        string_val: "click_seq_573"
        string_val: "click_seq_60950"
        string_val: "click_seq_62511"
        string_val: "click_seq_493"
        string_val: "click_seq_5254"
        string_val: "click_seq_61250"
        string_val: "click_seq_7067"
        string_val: "click_seq_1272"
        string_val: "click_seq_85510"
        string_val: "click_seq_25898"
        string_val: "click_seq_3789"
        string_val: "click_seq_3758"
        string_val: "click_seq_70015"
        string_val: "click_seq_7364"
        string_val: "click_seq_7010"
        string_val: "click_seq_134368"
        string_val: "click_seq_759"
        string_val: "click_seq_95780"
        string_val: "click_seq_5617"
        string_val: "click_seq_82641"
        string_val: "click_seq_6319"
        string_val: "click_seq_1370"
        string_val: "click_seq_3285"
        string_val: "click_seq_1739"
        string_val: "click_seq_3735"
        string_val: "click_seq_4166"
        string_val: "click_seq_132796"
        string_val: "click_seq_96935"
        string_val: "click_seq_58404"
        string_val: "click_seq_128842"
        string_val: "click_seq_95796"
        string_val: "click_seq_2333"
        string_val: "click_seq_7087"
        string_val: "click_seq_173197"
        string_val: "click_seq_2051"
        string_val: "click_seq_53464"
        string_val: "click_seq_4928"
        string_val: "click_seq_62836"
        string_val: "click_seq_1211"
        string_val: "click_seq_2527"
        string_val: "click_seq_51174"
        string_val: "click_seq_69757"
        string_val: "click_seq_97923"
        string_val: "click_seq_217"
        string_val: "click_seq_128594"
        string_val: "click_seq_4889"
        string_val: "click_seq_556"
        string_val: "click_seq_54354"
        string_val: "click_seq_1661"
        string_val: "click_seq_140038"
        string_val: "click_seq_57147"
        string_val: "click_seq_1962"
        string_val: "click_seq_81132"
        string_val: "click_seq_2136"
        string_val: "click_seq_959"
        string_val: "click_seq_5189"
        string_val: "click_seq_141928"
        string_val: "click_seq_1208"
        string_val: "click_seq_60937"
        string_val: "click_seq_104906"
        string_val: "click_seq_1162"
        string_val: "click_seq_2567"
        string_val: "click_seq_830"
        string_val: "click_seq_3609"
        string_val: "click_seq_111364"
        string_val: "click_seq_140561"
        string_val: "click_seq_4888"
        string_val: "click_seq_7117"
        string_val: "click_seq_998"
        string_val: "click_seq_1240"
        string_val: "click_seq_180297"
        string_val: "click_seq_106144"
        string_val: "click_seq_163639"
        string_val: "click_seq_179053"
        string_val: "click_seq_49530"
        string_val: "click_seq_2786"
        string_val: "click_seq_5103"
        string_val: "click_seq_5459"
        string_val: "click_seq_166203"
        string_val: "click_seq_67734"
        string_val: "click_seq_3270"
        string_val: "click_seq_63826"
        string_val: "click_seq_4886"
        string_val: "click_seq_73854"
        string_val: "click_seq_2568"
        string_val: "click_seq_848"
        string_val: "click_seq_5572"
        string_val: "click_seq_173941"
        string_val: "click_seq_4496"
        string_val: "click_seq_2325"
        string_val: "click_seq_34811"
        string_val: "click_seq_6811"
        string_val: "click_seq_47644"
        string_val: "click_seq_180"
        string_val: "click_seq_3576"
        string_val: "click_seq_3624"
        string_val: "click_seq_2263"
        string_val: "click_seq_2161"
        string_val: "click_seq_69469"
        string_val: "click_seq_2866"
        string_val: "click_seq_109850"
        string_val: "click_seq_4867"
        string_val: "click_seq_33237"
        string_val: "click_seq_61352"
        string_val: "click_seq_2770"
        string_val: "click_seq_609"
        string_val: "click_seq_101362"
        string_val: "click_seq_49272"
        string_val: "click_seq_4887"
        string_val: "click_seq_1860"
        string_val: "click_seq_74532"
        string_val: "click_seq_4018"
        string_val: "click_seq_134861"
        string_val: "click_seq_118924"
        string_val: "click_seq_3473"
        string_val: "click_seq_55080"
        string_val: "click_seq_48082"
        string_val: "click_seq_120761"
        string_val: "click_seq_5544"
        string_val: "click_seq_91337"
        string_val: "click_seq_86817"
        string_val: "click_seq_88267"
        string_val: "click_seq_1533"
        string_val: "click_seq_64032"
        string_val: "click_seq_2311"
        string_val: "click_seq_133645"
        string_val: "click_seq_3469"
        string_val: "click_seq_95207"
        string_val: "click_seq_2203"
        string_val: "click_seq_39446"
        string_val: "click_seq_78"
        string_val: "click_seq_152085"
        string_val: "click_seq_1348"
        string_val: "click_seq_1473"
        string_val: "click_seq_5209"
        string_val: "click_seq_8364"
        string_val: "click_seq_805"
        string_val: "click_seq_8494"
        string_val: "click_seq_49932"
        string_val: "click_seq_2787"
        string_val: "click_seq_2297"
        string_val: "click_seq_3654"
        string_val: "click_seq_8869"
        string_val: "click_seq_7455"
        string_val: "click_seq_8268"
        string_val: "click_seq_8183"
        string_val: "click_seq_75947"
        string_val: "click_seq_7843"
        string_val: "click_seq_48997"
        string_val: "click_seq_101577"
        string_val: "click_seq_30749"
        string_val: "click_seq_7285"
        string_val: "click_seq_3915"
        string_val: "click_seq_69275"
        string_val: "click_seq_904"
        string_val: "click_seq_5673"
        string_val: "click_seq_8617"
        string_val: "click_seq_2951"
        string_val: "click_seq_3361"
        string_val: "click_seq_4599"
        string_val: "click_seq_6001"
        string_val: "click_seq_8985"
        string_val: "click_seq_27329"
        string_val: "click_seq_5398"
        string_val: "click_seq_3186"
        string_val: "click_seq_437"
        string_val: "click_seq_372"
        string_val: "click_seq_75985"
        string_val: "click_seq_8512"
        string_val: "click_seq_86864"
        string_val: "click_seq_132335"
        string_val: "click_seq_3327"
        string_val: "click_seq_97168"
        string_val: "click_seq_95873"
        string_val: "click_seq_110746"
        string_val: "click_seq_67087"
        string_val: "click_seq_4450"
        string_val: "click_seq_3372"
        string_val: "click_seq_114670"
        string_val: "click_seq_3406"
        string_val: "click_seq_94262"
        string_val: "click_seq_1611"
        string_val: "click_seq_1220"
        string_val: "click_seq_7900"
        string_val: "click_seq_4224"
        string_val: "click_seq_3925"
        string_val: "click_seq_27716"
        string_val: "click_seq_5345"
        string_val: "click_seq_127098"
        string_val: "click_seq_56775"
        string_val: "click_seq_47810"
        string_val: "click_seq_3592"
        string_val: "click_seq_95149"
        string_val: "click_seq_166534"
        string_val: "click_seq_3475"
        string_val: "click_seq_2286"
        string_val: "click_seq_1225"
        string_val: "click_seq_5380"
        string_val: "click_seq_54"
        string_val: "click_seq_93982"
        string_val: "click_seq_4226"
        string_val: "click_seq_61240"
        string_val: "click_seq_7092"
        string_val: "click_seq_322"
        string_val: "click_seq_6336"
        string_val: "click_seq_60291"
        string_val: "click_seq_26523"
        string_val: "click_seq_4011"
        string_val: "click_seq_170897"
        string_val: "click_seq_168492"
        string_val: "click_seq_4158"
        string_val: "click_seq_3296"
        string_val: "click_seq_70599"
        string_val: "click_seq_2766"
        string_val: "click_seq_1648"
        string_val: "click_seq_54771"
        string_val: "click_seq_2803"
        string_val: "click_seq_1997"
        string_val: "click_seq_3081"
        string_val: "click_seq_4649"
        string_val: "click_seq_60303"
        string_val: "click_seq_8446"
        string_val: "click_seq_25886"
        string_val: "click_seq_2792"
        string_val: "click_seq_149830"
        string_val: "click_seq_1734"
        string_val: "click_seq_6789"
        string_val: "click_seq_4740"
        string_val: "click_seq_8302"
        string_val: "click_seq_3109"
        string_val: "click_seq_31658"
        string_val: "click_seq_449"
        string_val: "click_seq_130576"
        string_val: "click_seq_27831"
        string_val: "click_seq_5324"
        string_val: "click_seq_97306"
        string_val: "click_seq_3194"
        string_val: "click_seq_4925"
        string_val: "click_seq_5588"
        string_val: "click_seq_161580"
        string_val: "click_seq_2352"
        string_val: "click_seq_126577"
        string_val: "click_seq_8228"
        string_val: "click_seq_111443"
        string_val: "click_seq_46865"
        string_val: "click_seq_1344"
        string_val: "click_seq_1456"
        string_val: "click_seq_59016"
        string_val: "click_seq_1032"
        string_val: "click_seq_6170"
        string_val: "click_seq_2256"
        string_val: "click_seq_7742"
        string_val: "click_seq_119655"
        string_val: "click_seq_8266"
        string_val: "click_seq_1967"
        string_val: "click_seq_112175"
        string_val: "click_seq_3405"
        string_val: "click_seq_148592"
        string_val: "click_seq_47261"
        string_val: "click_seq_1427"
        string_val: "click_seq_3447"
        string_val: "click_seq_110501"
        string_val: "click_seq_6987"
        string_val: "click_seq_5264"
        string_val: "click_seq_91935"
        string_val: "click_seq_100810"
        string_val: "click_seq_93831"
        string_val: "click_seq_7142"
        string_val: "click_seq_2232"
        string_val: "click_seq_175435"
        string_val: "click_seq_1489"
        string_val: "click_seq_5224"
        string_val: "click_seq_4207"
        string_val: "click_seq_6327"
        string_val: "click_seq_6448"
        string_val: "click_seq_96084"
        string_val: "click_seq_2634"
        string_val: "click_seq_3971"
        string_val: "click_seq_2883"
        string_val: "click_seq_44694"
        string_val: "click_seq_709"
        string_val: "click_seq_291"
        string_val: "click_seq_2612"
        string_val: "click_seq_133771"
        string_val: "click_seq_109853"
        string_val: "click_seq_4039"
        string_val: "click_seq_4174"
        string_val: "click_seq_532"
        string_val: "click_seq_26375"
        string_val: "click_seq_8370"
        string_val: "click_seq_181719"
        string_val: "click_seq_2505"
        string_val: "click_seq_2798"
        string_val: "click_seq_436"
        string_val: "click_seq_103801"
        string_val: "click_seq_2971"
        string_val: "click_seq_47970"
        string_val: "click_seq_108090"
        string_val: "click_seq_7048"
        string_val: "click_seq_7757"
        string_val: "click_seq_139385"
        string_val: "click_seq_53022"
        string_val: "click_seq_6639"
        string_val: "click_seq_2878"
        string_val: "click_seq_45648"
        string_val: "click_seq_6279"
        string_val: "click_seq_1250"
        string_val: "click_seq_2523"
        string_val: "click_seq_45431"
        string_val: "click_seq_26003"
        string_val: "click_seq_94810"
        string_val: "click_seq_30994"
        string_val: "click_seq_152591"
        string_val: "click_seq_2184"
        string_val: "genres_(no genres listed)"
        string_val: "click_seq_47793"
        string_val: "click_seq_7063"
        string_val: "click_seq_6436"
        string_val: "click_seq_181139"
        string_val: "click_seq_2749"
        string_val: "click_seq_50999"
        string_val: "click_seq_4822"
        string_val: "click_seq_2289"
        string_val: "click_seq_667"
        string_val: "click_seq_6270"
        string_val: "click_seq_95311"
        string_val: "click_seq_42761"
        string_val: "click_seq_27002"
        string_val: "click_seq_901"
        string_val: "click_seq_2840"
        string_val: "click_seq_82857"
        string_val: "click_seq_104841"
        string_val: "click_seq_1271"
        string_val: "click_seq_80463"
        string_val: "click_seq_27618"
        string_val: "click_seq_1541"
        string_val: "click_seq_3350"
        string_val: "click_seq_1689"
        string_val: "click_seq_7083"
        string_val: "click_seq_141810"
        string_val: "click_seq_102007"
        string_val: "click_seq_58351"
        string_val: "click_seq_7019"
        string_val: "click_seq_127164"
        string_val: "click_seq_649"
        string_val: "click_seq_141830"
        string_val: "click_seq_4252"
        string_val: "click_seq_4040"
        string_val: "click_seq_175293"
        string_val: "click_seq_87298"
        string_val: "click_seq_3127"
        string_val: "click_seq_319"
        string_val: "click_seq_8117"
        string_val: "click_seq_3068"
        string_val: "click_seq_164655"
        string_val: "click_seq_7573"
        string_val: "click_seq_58287"
        string_val: "click_seq_2064"
        string_val: "click_seq_2092"
        string_val: "click_seq_7979"
        string_val: "click_seq_1126"
        string_val: "click_seq_3930"
        string_val: "click_seq_98243"
        string_val: "click_seq_173751"
        string_val: "click_seq_4671"
        string_val: "click_seq_114601"
        string_val: "click_seq_5397"
        string_val: "click_seq_130087"
        string_val: "click_seq_3474"
        string_val: "click_seq_6266"
        string_val: "click_seq_3708"
        string_val: "click_seq_1276"
        string_val: "click_seq_59667"
        string_val: "click_seq_7335"
        string_val: "click_seq_7316"
        string_val: "click_seq_6202"
        string_val: "click_seq_8870"
        string_val: "click_seq_149590"
        string_val: "click_seq_83134"
        string_val: "click_seq_77"
        string_val: "click_seq_147936"
        string_val: "click_seq_5820"
        string_val: "click_seq_102735"
        string_val: "click_seq_26158"
        string_val: "click_seq_113378"
        string_val: "click_seq_46772"
        string_val: "click_seq_224"
        string_val: "click_seq_143365"
        string_val: "click_seq_6713"
        string_val: "click_seq_2870"
        string_val: "click_seq_81819"
        string_val: "click_seq_818"
        string_val: "click_seq_44555"
        string_val: "click_seq_81"
        string_val: "click_seq_7981"
        string_val: "click_seq_48649"
        string_val: "click_seq_2248"
        string_val: "click_seq_132422"
        string_val: "click_seq_32302"
        string_val: "click_seq_6860"
        string_val: "click_seq_4056"
        string_val: "click_seq_59018"
        string_val: "click_seq_69953"
        string_val: "click_seq_162602"
        string_val: "click_seq_79590"
        string_val: "click_seq_211"
        string_val: "click_seq_176101"
        string_val: "click_seq_9008"
        string_val: "click_seq_965"
        string_val: "click_seq_59985"
        string_val: "click_seq_2073"
        string_val: "click_seq_95720"
        string_val: "click_seq_7835"
        string_val: "click_seq_105246"
        string_val: "click_seq_780"
        string_val: "click_seq_34359"
        string_val: "click_seq_233"
        string_val: "click_seq_179"
        string_val: "click_seq_74226"
        string_val: "click_seq_166946"
        string_val: "click_seq_8623"
        string_val: "click_seq_32139"
        string_val: "click_seq_2839"
        string_val: "click_seq_98061"
        string_val: "click_seq_3283"
        string_val: "click_seq_142598"
        string_val: "click_seq_96616"
        string_val: "click_seq_5527"
        string_val: "click_seq_4190"
        string_val: "click_seq_147"
        string_val: "click_seq_2818"
        string_val: "click_seq_152105"
        string_val: "click_seq_40478"
        string_val: "click_seq_58347"
        string_val: "click_seq_252"
        string_val: "click_seq_51573"
        string_val: "click_seq_4776"
        string_val: "click_seq_2640"
        string_val: "click_seq_1047"
        string_val: "click_seq_2013"
        string_val: "click_seq_2428"
        string_val: "click_seq_75"
        string_val: "click_seq_8482"
        string_val: "click_seq_111759"
        string_val: "click_seq_3428"
        string_val: "click_seq_116169"
        string_val: "click_seq_119"
        string_val: "click_seq_5300"
        string_val: "click_seq_93598"
        string_val: "click_seq_149354"
        string_val: "click_seq_117895"
        string_val: "click_seq_8379"
        string_val: "click_seq_5291"
        string_val: "click_seq_8798"
        string_val: "click_seq_193581"
        string_val: "click_seq_941"
        string_val: "click_seq_2381"
        string_val: "click_seq_50794"
        string_val: "click_seq_1526"
        string_val: "click_seq_251"
        string_val: "click_seq_112450"
        string_val: "click_seq_5110"
        string_val: "click_seq_186587"
        string_val: "click_seq_4135"
        string_val: "click_seq_39869"
        string_val: "click_seq_3730"
        string_val: "click_seq_2826"
        string_val: "click_seq_6769"
        string_val: "click_seq_62293"
        string_val: "click_seq_5670"
        string_val: "click_seq_8451"
        string_val: "click_seq_4438"
        string_val: "click_seq_489"
        string_val: "click_seq_2682"
        string_val: "click_seq_5443"
        string_val: "click_seq_1243"
        string_val: "click_seq_1204"
        string_val: "click_seq_159858"
        string_val: "click_seq_135"
        string_val: "click_seq_27124"
        string_val: "genres_War"
        string_val: "click_seq_103865"
        string_val: "click_seq_2907"
        string_val: "click_seq_32469"
        string_val: "click_seq_2448"
        string_val: "click_seq_26776"
        string_val: "click_seq_5023"
        string_val: "click_seq_52694"
        string_val: "click_seq_72308"
        string_val: "click_seq_562"
        string_val: "click_seq_137337"
        string_val: "click_seq_77795"
        string_val: "click_seq_44974"
        string_val: "click_seq_3315"
        string_val: "click_seq_103075"
        string_val: "click_seq_98961"
        string_val: "click_seq_117368"
        string_val: "click_seq_8405"
        string_val: "click_seq_6548"
        string_val: "click_seq_52668"
        string_val: "click_seq_3770"
        string_val: "click_seq_1092"
        string_val: "click_seq_3030"
        string_val: "click_seq_4979"
        string_val: "click_seq_7346"
        string_val: "click_seq_927"
        string_val: "click_seq_33629"
        string_val: "click_seq_5444"
        string_val: "click_seq_69516"
        string_val: "click_seq_1995"
        string_val: "click_seq_3395"
        string_val: "click_seq_80727"
        string_val: "click_seq_48045"
        string_val: "click_seq_26745"
        string_val: "click_seq_2442"
        string_val: "click_seq_8157"
        string_val: "click_seq_5925"
        string_val: "click_seq_27773"
        string_val: "click_seq_51925"
        string_val: "click_seq_2058"
        string_val: "click_seq_3189"
        string_val: "click_seq_4406"
        string_val: "click_seq_8010"
        string_val: "click_seq_892"
        string_val: "click_seq_72489"
        string_val: "click_seq_123200"
        string_val: "click_seq_673"
        string_val: "click_seq_2337"
        string_val: "click_seq_5529"
        string_val: "click_seq_71579"
        string_val: "click_seq_7175"
        string_val: "click_seq_134130"
        string_val: "click_seq_7896"
        string_val: "click_seq_3814"
        string_val: "click_seq_171749"
        string_val: "click_seq_92309"
        string_val: "click_seq_63479"
        string_val: "click_seq_9005"
        string_val: "click_seq_2151"
        string_val: "click_seq_2775"
        string_val: "click_seq_118896"
        string_val: "click_seq_4992"
        string_val: "click_seq_112512"
        string_val: "click_seq_101864"
        string_val: "click_seq_6669"
        string_val: "click_seq_7078"
        string_val: "click_seq_187593"
        string_val: "click_seq_5059"
        string_val: "click_seq_2988"
        string_val: "click_seq_68205"
        string_val: "click_seq_5151"
        string_val: "click_seq_986"
        string_val: "click_seq_4036"
        string_val: "click_seq_1755"
        string_val: "click_seq_181413"
        string_val: "click_seq_3153"
        string_val: "click_seq_102407"
        string_val: "click_seq_27266"
        string_val: "click_seq_64167"
        string_val: "click_seq_6946"
        string_val: "click_seq_8948"
        string_val: "click_seq_125221"
        string_val: "click_seq_2674"
        string_val: "click_seq_5026"
        string_val: "click_seq_2138"
        string_val: "click_seq_146688"
        string_val: "click_seq_7368"
        string_val: "click_seq_6222"
        string_val: "click_seq_1077"
        string_val: "click_seq_162"
        string_val: "click_seq_3256"
        string_val: "click_seq_4474"
        string_val: "click_seq_5780"
        string_val: "click_seq_804"
        string_val: "click_seq_6060"
        string_val: "click_seq_74508"
        string_val: "click_seq_3769"
        string_val: "click_seq_142536"
        string_val: "click_seq_5015"
        string_val: "click_seq_136355"
        string_val: "click_seq_27320"
        string_val: "click_seq_61262"
        string_val: "click_seq_3526"
        string_val: "click_seq_2795"
        string_val: "click_seq_165101"
        string_val: "click_seq_33294"
        string_val: "click_seq_112290"
        string_val: "click_seq_52885"
        string_val: "click_seq_156605"
        string_val: "click_seq_1963"
        string_val: "click_seq_86014"
        string_val: "click_seq_99636"
        string_val: "click_seq_2436"
        string_val: "click_seq_3535"
        string_val: "click_seq_1597"
        string_val: "click_seq_2324"
        string_val: "click_seq_3608"
        string_val: "click_seq_48596"
        string_val: "click_seq_7151"
        string_val: "click_seq_58191"
        string_val: "click_seq_2376"
        string_val: "click_seq_315"
        string_val: "click_seq_146"
        string_val: "click_seq_71464"
        string_val: "click_seq_3861"
        string_val: "click_seq_115727"
        string_val: "click_seq_5880"
        string_val: "click_seq_1586"
        string_val: "click_seq_6687"
        string_val: "click_seq_73386"
        string_val: "click_seq_4483"
        string_val: "click_seq_141408"
        string_val: "click_seq_7160"
        string_val: "click_seq_3208"
        string_val: "click_seq_7293"
        string_val: "click_seq_62"
        string_val: "click_seq_85342"
        string_val: "click_seq_44972"
        string_val: "click_seq_72731"
        string_val: "click_seq_4019"
        string_val: "click_seq_84942"
        string_val: "click_seq_1228"
        string_val: "click_seq_116823"
        string_val: "click_seq_156"
        string_val: "click_seq_1552"
        string_val: "click_seq_56715"
        string_val: "click_seq_64957"
        string_val: "click_seq_31225"
        string_val: "click_seq_1970"
        string_val: "click_seq_7841"
        string_val: "click_seq_107141"
        string_val: "click_seq_62299"
        string_val: "click_seq_27328"
        string_val: "click_seq_8391"
        string_val: "click_seq_43836"
        string_val: "click_seq_5221"
        string_val: "click_seq_66509"
        string_val: "click_seq_54272"
        string_val: "click_seq_53121"
        string_val: "click_seq_58655"
        string_val: "click_seq_3584"
        string_val: "click_seq_7899"
        string_val: "click_seq_7348"
        string_val: "click_seq_26344"
        string_val: "click_seq_107630"
        string_val: "click_seq_12"
        string_val: "click_seq_7411"
        string_val: "click_seq_6234"
        string_val: "click_seq_26528"
        string_val: "click_seq_4082"
        string_val: "click_seq_87960"
        string_val: "click_seq_594"
        string_val: "click_seq_4927"
        string_val: "click_seq_115216"
        string_val: "click_seq_71438"
        string_val: "click_seq_5454"
        string_val: "click_seq_1030"
        string_val: "click_seq_1256"
        string_val: "click_seq_1821"
        string_val: "click_seq_6954"
        string_val: "click_seq_4795"
        string_val: "click_seq_3246"
        string_val: "click_seq_127194"
        string_val: "click_seq_3667"
        string_val: "click_seq_1249"
        string_val: "click_seq_73822"
        string_val: "click_seq_3872"
        string_val: "click_seq_4989"
        string_val: "click_seq_115122"
        string_val: "click_seq_4988"
        string_val: "click_seq_109187"
        string_val: "click_seq_527"
        string_val: "click_seq_5839"
        string_val: "click_seq_7381"
        string_val: "click_seq_1964"
        string_val: "click_seq_4845"
        string_val: "click_seq_32600"
        string_val: "click_seq_7657"
        string_val: "click_seq_38388"
        string_val: "click_seq_63276"
        string_val: "click_seq_8264"
        string_val: "click_seq_2676"
        string_val: "click_seq_2292"
        string_val: "click_seq_2752"
        string_val: "click_seq_2983"
        string_val: "click_seq_3933"
        string_val: "click_seq_6620"
        string_val: "click_seq_26391"
        string_val: "click_seq_55247"
        string_val: "click_seq_3148"
        string_val: "click_seq_50158"
        string_val: "click_seq_933"
        string_val: "click_seq_3677"
        string_val: "click_seq_34321"
        string_val: "click_seq_7443"
        string_val: "click_seq_60397"
        string_val: "click_seq_889"
        string_val: "click_seq_67665"
        string_val: "click_seq_117529"
        string_val: "click_seq_6057"
        string_val: "click_seq_86293"
        string_val: "click_seq_5879"
        string_val: "click_seq_1465"
        string_val: "click_seq_277"
        string_val: "click_seq_62553"
        string_val: "click_seq_1005"
        string_val: "click_seq_3431"
        string_val: "click_seq_4502"
        string_val: "click_seq_3835"
        string_val: "click_seq_89864"
        string_val: "click_seq_2004"
        string_val: "click_seq_4883"
        string_val: "click_seq_6582"
        string_val: "click_seq_3392"
        string_val: "click_seq_160954"
        string_val: "click_seq_1643"
        string_val: "click_seq_2788"
        string_val: "click_seq_5720"
        string_val: "click_seq_5358"
        string_val: "click_seq_4686"
        string_val: "click_seq_2822"
        string_val: "click_seq_3787"
        string_val: "click_seq_2843"
        string_val: "click_seq_5127"
        string_val: "click_seq_5074"
        string_val: "click_seq_25750"
        string_val: "click_seq_132424"
        string_val: "click_seq_2515"
        string_val: "click_seq_8605"
        string_val: "click_seq_104241"
        string_val: "click_seq_3938"
        string_val: "click_seq_140715"
        string_val: "click_seq_7318"
        string_val: "click_seq_61236"
        string_val: "click_seq_4410"
        string_val: "click_seq_160718"
        string_val: "click_seq_510"
        string_val: "click_seq_131714"
        string_val: "click_seq_113374"
        string_val: "click_seq_3785"
        string_val: "click_seq_134246"
        string_val: "click_seq_185031"
        string_val: "click_seq_304"
        string_val: "click_seq_118888"
        string_val: "click_seq_54768"
        string_val: "click_seq_3203"
        string_val: "click_seq_6686"
        string_val: "click_seq_5500"
        string_val: "click_seq_2103"
        string_val: "genres_Action"
        string_val: "click_seq_8667"
        string_val: "click_seq_4745"
        string_val: "click_seq_66371"
        string_val: "click_seq_142558"
        string_val: "click_seq_96432"
        string_val: "click_seq_1194"
        string_val: "click_seq_2528"
        string_val: "click_seq_99112"
        string_val: "click_seq_708"
        string_val: "click_seq_73290"
        string_val: "click_seq_2211"
        string_val: "click_seq_2125"
        string_val: "click_seq_126090"
        string_val: "click_seq_3441"
        string_val: "click_seq_261"
        string_val: "click_seq_67799"
        string_val: "click_seq_6185"
        string_val: "click_seq_5239"
        string_val: "click_seq_26444"
        string_val: "click_seq_103596"
        string_val: "click_seq_342"
        string_val: "click_seq_40578"
        string_val: "click_seq_126142"
        string_val: "click_seq_496"
        string_val: "click_seq_6887"
        string_val: "click_seq_833"
        string_val: "click_seq_77931"
        string_val: "click_seq_104879"
        string_val: "click_seq_4780"
        string_val: "click_seq_2005"
        string_val: "click_seq_42007"
        string_val: "click_seq_899"
        string_val: "click_seq_7560"
        string_val: "click_seq_3452"
        string_val: "click_seq_62799"
        string_val: "click_seq_99764"
        string_val: "click_seq_132888"
        string_val: "click_seq_95165"
        string_val: "click_seq_7581"
        string_val: "click_seq_810"
        string_val: "click_seq_4643"
        string_val: "click_seq_275"
        string_val: "click_seq_6201"
        string_val: "click_seq_2799"
        string_val: "click_seq_133780"
        string_val: "click_seq_1914"
        string_val: "click_seq_3454"
        string_val: "click_seq_1341"
        string_val: "click_seq_127146"
        string_val: "click_seq_47384"
        string_val: "click_seq_6335"
        string_val: "click_seq_1906"
        string_val: "click_seq_6515"
        string_val: "click_seq_2053"
        string_val: "click_seq_70565"
        string_val: "click_seq_117466"
        string_val: "click_seq_934"
        string_val: "screen_year_6"
        string_val: "click_seq_172497"
        string_val: "click_seq_1681"
        string_val: "click_seq_30825"
        string_val: "click_seq_317"
        string_val: "click_seq_171891"
        string_val: "click_seq_78209"
        string_val: "click_seq_3370"
        string_val: "click_seq_3753"
        string_val: "click_seq_103755"
        string_val: "click_seq_74696"
        string_val: "click_seq_7822"
        string_val: "click_seq_89582"
        string_val: "click_seq_7372"
        string_val: "click_seq_1124"
        string_val: "click_seq_145935"
        string_val: "click_seq_3825"
        string_val: "click_seq_90357"
        string_val: "click_seq_182793"
        string_val: "click_seq_836"
        string_val: "click_seq_68358"
        string_val: "click_seq_63072"
        string_val: "click_seq_5447"
        string_val: "click_seq_26704"
        string_val: "click_seq_1457"
        string_val: "click_seq_219"
        string_val: "click_seq_1910"
        string_val: "click_seq_151695"
        string_val: "click_seq_64501"
        string_val: "click_seq_136449"
        string_val: "click_seq_8373"
        string_val: "click_seq_134528"
        string_val: "click_seq_64114"
        string_val: "click_seq_151763"
        string_val: "click_seq_5884"
        string_val: "click_seq_1447"
        string_val: "click_seq_96917"
        string_val: "click_seq_4153"
        string_val: "click_seq_6750"
        string_val: "click_seq_66783"
        string_val: "click_seq_190221"
        string_val: "click_seq_58972"
        string_val: "click_seq_1885"
        string_val: "click_seq_3423"
        string_val: "click_seq_32289"
        string_val: "click_seq_116"
        string_val: "click_seq_109372"
        string_val: "click_seq_2751"
        string_val: "click_seq_27441"
        string_val: "click_seq_3398"
        string_val: "click_seq_3294"
        string_val: "click_seq_90647"
        string_val: "click_seq_6748"
        string_val: "click_seq_44931"
        string_val: "click_seq_46664"
        string_val: "click_seq_1268"
        string_val: "click_seq_3557"
        string_val: "click_seq_6067"
        string_val: "click_seq_3258"
        string_val: "click_seq_101088"
        string_val: "click_seq_1679"
        string_val: "click_seq_2868"
        string_val: "click_seq_548"
        string_val: "click_seq_1035"
        string_val: "click_seq_55116"
        string_val: "click_seq_91974"
        string_val: "click_seq_74677"
        string_val: "click_seq_1707"
        string_val: "click_seq_313"
        string_val: "click_seq_93840"
        string_val: "click_seq_92475"
        string_val: "click_seq_1733"
        string_val: "click_seq_115680"
        string_val: "click_seq_72405"
        string_val: "click_seq_4688"
        string_val: "click_seq_1081"
        string_val: "click_seq_2986"
        string_val: "click_seq_1214"
        string_val: "click_seq_3088"
        string_val: "click_seq_1927"
        string_val: "click_seq_1093"
        string_val: "click_seq_180095"
        string_val: "click_seq_2302"
        string_val: "click_seq_8383"
        string_val: "click_seq_1037"
        string_val: "click_seq_133782"
        string_val: "click_seq_60040"
        string_val: "click_seq_1201"
        string_val: "click_seq_3251"
        string_val: "click_seq_8500"
        string_val: "click_seq_143458"
        string_val: "click_seq_8481"
        string_val: "click_seq_146682"
        string_val: "click_seq_1639"
        string_val: "click_seq_161032"
        string_val: "click_seq_100383"
        string_val: "click_seq_37477"
        string_val: "click_seq_176"
        string_val: "click_seq_5700"
        string_val: "click_seq_634"
        string_val: "click_seq_65135"
        string_val: "click_seq_104374"
        string_val: "click_seq_117590"
        string_val: "click_seq_6577"
        string_val: "click_seq_5096"
        string_val: "click_seq_36397"
        string_val: "click_seq_581"
        string_val: "click_seq_8118"
        string_val: "click_seq_60487"
        string_val: "click_seq_5965"
        string_val: "click_seq_89072"
        string_val: "click_seq_8535"
        string_val: "click_seq_6552"
        string_val: "click_seq_69436"
        string_val: "click_seq_61248"
        string_val: "click_seq_56174"
        string_val: "click_seq_4993"
        string_val: "click_seq_68954"
        string_val: "click_seq_46337"
        string_val: "click_seq_31610"
        string_val: "click_seq_116849"
        string_val: "click_seq_154"
        string_val: "click_seq_149902"
        string_val: "click_seq_3074"
        string_val: "click_seq_26567"
        string_val: "click_seq_128488"
        string_val: "click_seq_4312"
        string_val: "click_seq_1892"
        string_val: "click_seq_164"
        string_val: "click_seq_4703"
        string_val: "click_seq_4445"
        string_val: "click_seq_27627"
        string_val: "click_seq_79684"
        string_val: "click_seq_6689"
        string_val: "click_seq_1262"
        string_val: "click_seq_111617"
        string_val: "click_seq_87192"
        string_val: "click_seq_1130"
        string_val: "click_seq_8800"
        string_val: "click_seq_3177"
        string_val: "click_seq_533"
        string_val: "click_seq_4963"
        string_val: "click_seq_5275"
        string_val: "click_seq_4782"
        string_val: "click_seq_91873"
        string_val: "click_seq_61132"
        string_val: "click_seq_6793"
        string_val: "click_seq_2807"
        string_val: "click_seq_33162"
        string_val: "click_seq_62434"
        string_val: "click_seq_2409"
        string_val: "click_seq_25940"
        string_val: "click_seq_69278"
        string_val: "click_seq_138632"
        string_val: "click_seq_3342"
        string_val: "click_seq_68319"
        string_val: "click_seq_121099"
        string_val: "click_seq_6573"
        string_val: "click_seq_116668"
        string_val: "click_seq_4602"
        string_val: "click_seq_3996"
        string_val: "click_seq_1298"
        string_val: "click_seq_69805"
        string_val: "click_seq_70703"
        string_val: "click_seq_5773"
        string_val: "click_seq_5882"
        string_val: "click_seq_3446"
        string_val: "click_seq_174909"
        string_val: "click_seq_27075"
        string_val: "click_seq_79185"
        string_val: "click_seq_6387"
        string_val: "click_seq_100083"
        string_val: "click_seq_89837"
        string_val: "click_seq_4178"
        string_val: "click_seq_160438"
        string_val: "click_seq_130073"
        string_val: "click_seq_26761"
        string_val: "click_seq_59306"
        string_val: "click_seq_1050"
        string_val: "click_seq_3048"
        string_val: "click_seq_32234"
        string_val: "click_seq_8506"
        string_val: "click_seq_1987"
        string_val: "click_seq_455"
        string_val: "click_seq_2384"
        string_val: "click_seq_139157"
        string_val: "click_seq_112852"
        string_val: "click_seq_558"
        string_val: "click_seq_2177"
        string_val: "click_seq_3964"
        string_val: "click_seq_115210"
        string_val: "click_seq_130520"
        string_val: "click_seq_155358"
        string_val: "click_seq_31702"
        string_val: "click_seq_175693"
        string_val: "click_seq_2043"
        string_val: "click_seq_80831"
        string_val: "click_seq_6483"
        string_val: "click_seq_136018"
        string_val: "click_seq_1752"
        string_val: "click_seq_33124"
        string_val: "click_seq_69406"
        string_val: "click_seq_131013"
        string_val: "click_seq_171917"
        string_val: "click_seq_7262"
        string_val: "click_seq_32029"
        string_val: "click_seq_113207"
        string_val: "click_seq_5693"
        string_val: "click_seq_1704"
        string_val: "click_seq_3914"
        string_val: "click_seq_1331"
        string_val: "click_seq_8577"
        string_val: "click_seq_34540"
        string_val: "click_seq_107953"
        string_val: "click_seq_54780"
        string_val: "click_seq_3459"
        string_val: "click_seq_7438"
        string_val: "click_seq_340"
        string_val: "click_seq_136016"
        string_val: "click_seq_6350"
        string_val: "click_seq_167706"
        string_val: "click_seq_5363"
        string_val: "click_seq_1858"
        string_val: "click_seq_88746"
        string_val: "click_seq_62113"
        string_val: "click_seq_4939"
        string_val: "click_seq_26195"
        string_val: "click_seq_1949"
        string_val: "click_seq_99030"
        string_val: "click_seq_450"
        string_val: "click_seq_132488"
        string_val: "click_seq_2886"
        string_val: "click_seq_418"
        string_val: "click_seq_53453"
        string_val: "click_seq_4916"
        string_val: "click_seq_4809"
        string_val: "click_seq_136834"
        string_val: "click_seq_1227"
        string_val: "click_seq_46322"
        string_val: "click_seq_73569"
        string_val: "click_seq_174727"
        string_val: "click_seq_5222"
        string_val: "click_seq_41627"
        string_val: "click_seq_41569"
        string_val: "click_seq_25850"
        string_val: "click_seq_5932"
        string_val: "click_seq_27373"
        string_val: "click_seq_121171"
        string_val: "click_seq_64997"
        string_val: "click_seq_1288"
        string_val: "click_seq_3430"
        string_val: "click_seq_6380"
        string_val: "click_seq_1150"
        string_val: "click_seq_4735"
        string_val: "click_seq_34319"
        string_val: "click_seq_89"
        string_val: "click_seq_156371"
        string_val: "click_seq_6654"
        string_val: "click_seq_1347"
        string_val: "click_seq_2639"
        string_val: "click_seq_3113"
        string_val: "click_seq_4574"
        string_val: "click_seq_103048"
        string_val: "click_seq_84954"
        string_val: "click_seq_8730"
        string_val: "click_seq_1699"
        string_val: "click_seq_89804"
        string_val: "click_seq_89840"
        string_val: "click_seq_3450"
        string_val: "click_seq_2973"
        string_val: "click_seq_3238"
        string_val: "click_seq_208"
        string_val: "click_seq_346"
        string_val: "click_seq_1171"
        string_val: "click_seq_6265"
        string_val: "click_seq_2738"
        string_val: "click_seq_3571"
        string_val: "click_seq_26237"
        string_val: "click_seq_5034"
        string_val: "click_seq_84392"
        string_val: "click_seq_159161"
        string_val: "click_seq_1010"
        string_val: "click_seq_71732"
        string_val: "click_seq_8947"
        string_val: "click_seq_58295"
        string_val: "click_seq_546"
        string_val: "click_seq_2727"
        string_val: "click_seq_48883"
        string_val: "click_seq_8340"
        string_val: "click_seq_7206"
        string_val: "click_seq_4890"
        string_val: "click_seq_4017"
        string_val: "click_seq_71033"
        string_val: "click_seq_3008"
        string_val: "click_seq_6658"
        string_val: "click_seq_2504"
        string_val: "click_seq_100226"
        string_val: "click_seq_108715"
        string_val: "click_seq_56389"
        string_val: "click_seq_7228"
        string_val: "click_seq_5863"
        string_val: "click_seq_26662"
        string_val: "click_seq_61401"
        string_val: "click_seq_27523"
        string_val: "click_seq_4066"
        string_val: "click_seq_3731"
        string_val: "click_seq_106883"
        string_val: "click_seq_7282"
        string_val: "click_seq_129779"
        string_val: "click_seq_122627"
        string_val: "click_seq_306"
        string_val: "click_seq_49274"
        string_val: "click_seq_65261"
        string_val: "click_seq_6122"
        string_val: "click_seq_5177"
        string_val: "click_seq_135787"
        string_val: "click_seq_163925"
        string_val: "click_seq_59143"
        string_val: "click_seq_132362"
        string_val: "click_seq_2577"
        string_val: "click_seq_1170"
        string_val: "click_seq_140525"
        string_val: "click_seq_5267"
        string_val: "click_seq_179709"
        string_val: "click_seq_3439"
        string_val: "click_seq_71468"
        string_val: "click_seq_3365"
        string_val: "click_seq_7493"
        string_val: "click_seq_8531"
        string_val: "click_seq_7842"
        string_val: "click_seq_33683"
        string_val: "click_seq_114795"
        string_val: "click_seq_83910"
        string_val: "click_seq_190213"
        string_val: "click_seq_32300"
        string_val: "click_seq_2398"
        string_val: "click_seq_3655"
        string_val: "click_seq_2733"
        string_val: "click_seq_5679"
        string_val: "click_seq_152970"
        string_val: "click_seq_5524"
        string_val: "click_seq_2178"
        string_val: "click_seq_65601"
        string_val: "click_seq_121253"
        string_val: "click_seq_102123"
        string_val: "click_seq_81782"
        string_val: "click_seq_91386"
        string_val: "click_seq_69654"
        string_val: "click_seq_1829"
        string_val: "click_seq_89745"
        string_val: "click_seq_4846"
        string_val: "click_seq_4660"
        string_val: "click_seq_114060"
        string_val: "click_seq_2130"
        string_val: "click_seq_48780"
        string_val: "click_seq_31545"
        string_val: "click_seq_3673"
        string_val: "click_seq_2406"
        string_val: "click_seq_2181"
        string_val: "click_seq_103543"
        string_val: "click_seq_27008"
        string_val: "click_seq_174055"
        string_val: "click_seq_168252"
        string_val: "click_seq_81562"
        string_val: "click_seq_6593"
        string_val: "click_seq_3206"
        string_val: "click_seq_48593"
        string_val: "click_seq_1969"
        string_val: "click_seq_100306"
        string_val: "click_seq_5456"
        string_val: "click_seq_48150"
        string_val: "click_seq_671"
        string_val: "click_seq_5618"
        string_val: "click_seq_6442"
        string_val: "click_seq_158882"
        string_val: "click_seq_8254"
        string_val: "click_seq_7376"
        string_val: "click_seq_1921"
        string_val: "click_seq_3497"
        string_val: "click_seq_80693"
        string_val: "click_seq_4292"
        string_val: "genres_Animation"
        string_val: "click_seq_3317"
        string_val: "click_seq_54999"
        string_val: "click_seq_170355"
        string_val: "click_seq_1841"
        string_val: "click_seq_4133"
        string_val: "click_seq_5637"
        string_val: "click_seq_2014"
        string_val: "click_seq_2370"
        string_val: "click_seq_134796"
        string_val: "click_seq_8943"
        string_val: "click_seq_81591"
        string_val: "click_seq_1188"
        string_val: "click_seq_56587"
        string_val: "click_seq_117176"
        string_val: "click_seq_26712"
        string_val: "click_seq_8873"
        string_val: "click_seq_5013"
        string_val: "click_seq_65642"
        string_val: "click_seq_45720"
        string_val: "click_seq_2204"
        string_val: "click_seq_26700"
        string_val: "click_seq_51939"
        string_val: "click_seq_49961"
        string_val: "click_seq_2763"
        string_val: "click_seq_3617"
        string_val: "click_seq_109895"
        string_val: "click_seq_8507"
        string_val: "click_seq_1919"
        string_val: "click_seq_160440"
        string_val: "click_seq_1161"
        string_val: "click_seq_2471"
        string_val: "click_seq_8880"
        string_val: "click_seq_53953"
        string_val: "click_seq_42946"
        string_val: "click_seq_1017"
        string_val: "click_seq_4092"
        string_val: "click_seq_1419"
        string_val: "click_seq_109578"
        string_val: "click_seq_638"
        string_val: "click_seq_4394"
        string_val: "click_seq_3529"
        string_val: "click_seq_31433"
        string_val: "click_seq_8633"
        string_val: "click_seq_376"
        string_val: "click_seq_107771"
        string_val: "click_seq_58105"
        string_val: "click_seq_2117"
        string_val: "click_seq_4844"
        string_val: "click_seq_45"
        string_val: "click_seq_2827"
        string_val: "click_seq_4285"
        string_val: "click_seq_26422"
        string_val: "click_seq_2968"
        string_val: "click_seq_31086"
        string_val: "click_seq_8907"
        string_val: "click_seq_148709"
        string_val: "click_seq_59814"
        string_val: "click_seq_2583"
        string_val: "click_seq_2495"
        string_val: "click_seq_169958"
        string_val: "click_seq_7116"
        string_val: "click_seq_800"
        string_val: "click_seq_72167"
        string_val: "click_seq_58492"
        string_val: "click_seq_1952"
        string_val: "click_seq_6549"
        string_val: "click_seq_148424"
        string_val: "click_seq_4812"
        string_val: "click_seq_5333"
        string_val: "click_seq_128087"
        string_val: "click_seq_5427"
        string_val: "click_seq_31590"
        string_val: "click_seq_152081"
        string_val: "click_seq_5881"
        string_val: "click_seq_6724"
        string_val: "click_seq_4080"
        string_val: "click_seq_3791"
        string_val: "click_seq_78264"
        string_val: "click_seq_6880"
        string_val: "click_seq_4814"
        string_val: "click_seq_5092"
        string_val: "click_seq_55363"
        string_val: "click_seq_484"
        string_val: "click_seq_3054"
        string_val: "click_seq_84189"
        string_val: "click_seq_3072"
        string_val: "click_seq_121007"
        string_val: "click_seq_5956"
        string_val: "click_seq_155589"
        string_val: "click_seq_3901"
        string_val: "click_seq_1897"
        string_val: "click_seq_114554"
        string_val: "click_seq_8459"
        string_val: "click_seq_6993"
        string_val: "click_seq_3412"
        string_val: "click_seq_2642"
        string_val: "click_seq_7439"
        string_val: "click_seq_3017"
        string_val: "click_seq_69951"
        string_val: "click_seq_936"
        string_val: "click_seq_1717"
        string_val: "click_seq_51255"
        string_val: "click_seq_52967"
        string_val: "click_seq_169034"
        string_val: "click_seq_7347"
        string_val: "click_seq_4544"
        string_val: "click_seq_569"
        string_val: "click_seq_782"
        string_val: "click_seq_146309"
        string_val: "click_seq_43919"
        string_val: "click_seq_2304"
        string_val: "click_seq_448"
        string_val: "click_seq_93287"
        string_val: "click_seq_710"
        string_val: "click_seq_3147"
        string_val: "click_seq_1307"
        string_val: "click_seq_65037"
        string_val: "click_seq_2801"
        string_val: "click_seq_2797"
        string_val: "click_seq_131796"
        string_val: "click_seq_6125"
        string_val: "click_seq_6547"
        string_val: "click_seq_6314"
        string_val: "click_seq_2418"
        string_val: "click_seq_773"
        string_val: "click_seq_155892"
        string_val: "click_seq_90057"
        string_val: "click_seq_103602"
        string_val: "click_seq_2940"
        string_val: "click_seq_2600"
        string_val: "click_seq_80917"
        string_val: "click_seq_58025"
        string_val: "click_seq_51834"
        string_val: "click_seq_2816"
        string_val: "click_seq_96004"
        string_val: "click_seq_1284"
        string_val: "click_seq_3788"
        string_val: "click_seq_70728"
        string_val: "click_seq_3414"
        string_val: "click_seq_44193"
        string_val: "click_seq_6331"
        string_val: "click_seq_3403"
        string_val: "click_seq_8458"
        string_val: "click_seq_80549"
        string_val: "click_seq_128832"
        string_val: "click_seq_160527"
        string_val: "click_seq_105746"
        string_val: "click_seq_2261"
        string_val: "click_seq_91688"
        string_val: "click_seq_106696"
        string_val: "click_seq_279"
        string_val: "click_seq_8670"
        string_val: "click_seq_945"
        string_val: "click_seq_157432"
        string_val: "click_seq_4799"
        string_val: "click_seq_168632"
        string_val: "click_seq_117133"
        string_val: "click_seq_1551"
        string_val: "click_seq_3663"
        string_val: "click_seq_157699"
        string_val: "click_seq_7004"
        string_val: "click_seq_170551"
        string_val: "click_seq_564"
        string_val: "click_seq_3298"
        string_val: "click_seq_497"
        string_val: "click_seq_147657"
        string_val: "click_seq_55577"
        string_val: "click_seq_74510"
        string_val: "click_seq_69849"
        string_val: "click_seq_3987"
        string_val: "click_seq_444"
        string_val: "click_seq_132084"
        string_val: "click_seq_6218"
        string_val: "click_seq_6595"
        string_val: "click_seq_172583"
        string_val: "click_seq_100579"
        string_val: "click_seq_3594"
        string_val: "click_seq_2990"
        string_val: "click_seq_333"
        string_val: "click_seq_969"
        string_val: "click_seq_71899"
        string_val: "click_seq_30820"
        string_val: "click_seq_158238"
        string_val: "click_seq_6310"
        string_val: "click_seq_4624"
        string_val: "click_seq_26792"
        string_val: "click_seq_973"
        string_val: "click_seq_3192"
        string_val: "click_seq_1836"
        string_val: "click_seq_2159"
        string_val: "click_seq_4961"
        string_val: "click_seq_5684"
        string_val: "click_seq_6405"
        string_val: "click_seq_2732"
        string_val: "click_seq_3368"
        string_val: "click_seq_1566"
        string_val: "click_seq_164917"
        string_val: "click_seq_6678"
        string_val: "click_seq_69224"
        string_val: "click_seq_3569"
        string_val: "click_seq_8840"
        string_val: "click_seq_163"
        string_val: "click_seq_6818"
        string_val: "click_seq_158721"
        string_val: "click_seq_4632"
        string_val: "click_seq_162968"
        string_val: "click_seq_6337"
        string_val: "click_seq_384"
        string_val: "click_seq_26303"
        string_val: "click_seq_7028"
        string_val: "click_seq_2857"
        string_val: "click_seq_4321"
        string_val: "click_seq_2993"
        string_val: "click_seq_6765"
        string_val: "click_seq_1123"
        string_val: "click_seq_91535"
        string_val: "click_seq_6909"
        string_val: "click_seq_104339"
        string_val: "click_seq_3359"
        string_val: "click_seq_47099"
        string_val: "click_seq_26629"
        string_val: "click_seq_77561"
        string_val: "click_seq_3160"
        string_val: "click_seq_1931"
        string_val: "click_seq_5515"
        string_val: "click_seq_6264"
        string_val: "click_seq_6873"
        string_val: "click_seq_2071"
        string_val: "click_seq_102058"
        string_val: "click_seq_79895"
        string_val: "click_seq_6618"
        string_val: "click_seq_2740"
        string_val: "click_seq_104272"
        string_val: "click_seq_61323"
        string_val: "click_seq_91622"
        string_val: "click_seq_90345"
        string_val: "click_seq_802"
        string_val: "click_seq_7324"
        string_val: "click_seq_1060"
        string_val: "click_seq_108"
        string_val: "click_seq_94503"
        string_val: "click_seq_4156"
        string_val: "click_seq_6365"
        string_val: "click_seq_42738"
        string_val: "click_seq_56805"
        string_val: "click_seq_1971"
        string_val: "click_seq_2145"
        string_val: "click_seq_7810"
        string_val: "click_seq_6763"
        string_val: "click_seq_3028"
        string_val: "click_seq_91079"
        string_val: "click_seq_40278"
        string_val: "click_seq_2748"
        string_val: "click_seq_7883"
        string_val: "click_seq_7647"
        string_val: "click_seq_1079"
        string_val: "click_seq_47952"
        string_val: "click_seq_86290"
        string_val: "click_seq_711"
        string_val: "click_seq_26198"
        string_val: "click_seq_6158"
        string_val: "click_seq_4827"
        string_val: "click_seq_743"
        string_val: "click_seq_330"
        string_val: "click_seq_55020"
        string_val: "click_seq_71500"
        string_val: "click_seq_26236"
        string_val: "click_seq_110297"
        string_val: "click_seq_40629"
        string_val: "click_seq_166643"
        string_val: "click_seq_126"
        string_val: "click_seq_4338"
        string_val: "click_seq_1020"
        string_val: "click_seq_988"
        string_val: "click_seq_89678"
        string_val: "click_seq_7357"
        string_val: "click_seq_538"
        string_val: "click_seq_2315"
        string_val: "click_seq_1839"
        string_val: "click_seq_67788"
        string_val: "click_seq_62208"
        string_val: "click_seq_6408"
        string_val: "click_seq_122906"
        string_val: "click_seq_4932"
        string_val: "click_seq_158"
        string_val: "click_seq_2110"
        string_val: "click_seq_3664"
        string_val: "click_seq_63853"
        string_val: "click_seq_131656"
        string_val: "click_seq_142507"
        string_val: "click_seq_44195"
        string_val: "click_seq_81018"
        string_val: "click_seq_5943"
        string_val: "click_seq_6985"
        string_val: "click_seq_4340"
        string_val: "click_seq_87444"
        string_val: "click_seq_4389"
        string_val: "click_seq_3794"
        string_val: "click_seq_141"
        string_val: "click_seq_97304"
        string_val: "click_seq_7045"
        string_val: "click_seq_5873"
        string_val: "click_seq_2921"
        string_val: "click_seq_4920"
        string_val: "click_seq_2174"
        string_val: "click_seq_8014"
        string_val: "click_seq_53972"
        string_val: "click_seq_1209"
        string_val: "click_seq_55687"
        string_val: "click_seq_6509"
        string_val: "click_seq_7369"
        string_val: "click_seq_57526"
        string_val: "click_seq_2118"
        string_val: "click_seq_7879"
        string_val: "click_seq_2283"
        string_val: "click_seq_5672"
        string_val: "click_seq_3063"
        string_val: "click_seq_104141"
        string_val: "click_seq_106918"
        string_val: "click_seq_4003"
        string_val: "click_seq_31685"
        string_val: "click_seq_54962"
        string_val: "click_seq_155743"
        string_val: "click_seq_32666"
        string_val: "click_seq_26732"
        string_val: "click_seq_40581"
        string_val: "click_seq_7753"
        string_val: "click_seq_102716"
        string_val: "click_seq_179401"
        string_val: "click_seq_140711"
        string_val: "click_seq_4006"
        string_val: "click_seq_3462"
        string_val: "click_seq_168266"
        string_val: "click_seq_27156"
        string_val: "click_seq_5699"
        string_val: "click_seq_88235"
        string_val: "click_seq_134334"
        string_val: "click_seq_911"
        string_val: "click_seq_88812"
        string_val: "click_seq_6424"
        string_val: "click_seq_7248"
        string_val: "click_seq_117877"
        string_val: "click_seq_4015"
        string_val: "click_seq_910"
        string_val: "click_seq_106438"
        string_val: "click_seq_2084"
        string_val: "click_seq_1206"
        string_val: "click_seq_101072"
        string_val: "click_seq_2190"
        string_val: "click_seq_26409"
        string_val: "click_seq_3703"
        string_val: "click_seq_4522"
        string_val: "click_seq_93988"
        string_val: "click_seq_60514"
        string_val: "click_seq_1827"
        string_val: "click_seq_6371"
        string_val: "click_seq_2108"
        string_val: "click_seq_4836"
        string_val: "click_seq_7367"
        string_val: "click_seq_2346"
        string_val: "click_seq_3945"
        string_val: "click_seq_2167"
        string_val: "click_seq_31925"
        string_val: "click_seq_4921"
        string_val: "click_seq_4720"
        string_val: "click_seq_32598"
        string_val: "click_seq_1754"
        string_val: "click_seq_8024"
        string_val: "click_seq_88327"
        string_val: "click_seq_1278"
        string_val: "click_seq_26084"
        string_val: "click_seq_166291"
        string_val: "click_seq_58803"
        string_val: "click_seq_5341"
        string_val: "click_seq_2093"
        string_val: "click_seq_64497"
        string_val: "click_seq_6433"
        string_val: "click_seq_55245"
        string_val: "click_seq_68237"
        string_val: "click_seq_5903"
        string_val: "click_seq_97194"
        string_val: "click_seq_94780"
        string_val: "click_seq_420"
        string_val: "click_seq_72701"
        string_val: "click_seq_5081"
        string_val: "click_seq_5942"
        string_val: "click_seq_6785"
        string_val: "click_seq_6078"
        string_val: "click_seq_53127"
        string_val: "click_seq_74089"
        string_val: "click_seq_167296"
        string_val: "click_seq_100487"
        string_val: "click_seq_31420"
        string_val: "click_seq_56152"
        string_val: "click_seq_51709"
        string_val: "click_seq_103235"
        string_val: "click_seq_6254"
        string_val: "click_seq_5294"
        string_val: "click_seq_52722"
        string_val: "click_seq_3527"
        string_val: "click_seq_102749"
        string_val: "click_seq_70994"
        string_val: "click_seq_8275"
        string_val: "click_seq_73023"
        string_val: "click_seq_34334"
        string_val: "click_seq_2620"
        string_val: "click_seq_944"
        string_val: "click_seq_2334"
        string_val: "click_seq_27751"
        string_val: "click_seq_92637"
        string_val: "click_seq_74916"
        string_val: "click_seq_56915"
        string_val: "click_seq_47202"
        string_val: "click_seq_1259"
        string_val: "click_seq_61350"
        string_val: "click_seq_4126"
        string_val: "click_seq_3877"
        string_val: "click_seq_4725"
        string_val: "click_seq_1767"
        string_val: "click_seq_97836"
        string_val: "click_seq_1490"
        string_val: "click_seq_62376"
        string_val: "click_seq_147382"
        string_val: "click_seq_4947"
        string_val: "click_seq_2563"
        string_val: "click_seq_3042"
        string_val: "click_seq_85056"
        string_val: "click_seq_93008"
        string_val: "click_seq_2575"
        string_val: "click_seq_7767"
        string_val: "click_seq_2176"
        string_val: "click_seq_33836"
        string_val: "click_seq_62374"
        string_val: "click_seq_3710"
        string_val: "click_seq_7562"
        string_val: "click_seq_2651"
        string_val: "click_seq_151653"
        string_val: "click_seq_26152"
        string_val: "click_seq_4085"
        string_val: "click_seq_7103"
        string_val: "click_seq_1238"
        string_val: "click_seq_228"
        string_val: "click_seq_27802"
        string_val: "click_seq_1280"
        string_val: "click_seq_3036"
        string_val: "click_seq_3355"
        string_val: "click_seq_6268"
        string_val: "click_seq_142366"
        string_val: "click_seq_34338"
        string_val: "click_seq_4105"
        string_val: "click_seq_6539"
        string_val: "click_seq_2380"
        string_val: "click_seq_32554"
        string_val: "click_seq_44773"
        string_val: "click_seq_4687"
        string_val: "click_seq_26797"
        string_val: "click_seq_5614"
        string_val: "click_seq_37739"
        string_val: "click_seq_3545"
        string_val: "genres_Sci-Fi"
        string_val: "click_seq_2114"
        string_val: "click_seq_5669"
        string_val: "click_seq_102666"
…
    key: "dtype"
    value {
      type: DT_INT32
    }
  }
  attr {
    key: "value"
    value {
      tensor {
        dtype: DT_INT32
        tensor_shape {
        }
        int_val: 0
      }
    }
  }
}
node {
  name: "report_uninitialized_variables_1/boolean_mask/concat"
  op: "ConcatV2"
  input: "report_uninitialized_variables_1/boolean_mask/strided_slice_1"
  input: "report_uninitialized_variables_1/boolean_mask/concat/values_1"
  input: "report_uninitialized_variables_1/boolean_mask/strided_slice_2"
  input: "report_uninitialized_variables_1/boolean_mask/concat/axis"
  device: "/device:CPU:0"
  attr {
    key: "N"
    value {
      i: 3
    }
  }
  attr {
    key: "T"
    value {
      type: DT_INT32
    }
  }
  attr {
    key: "Tidx"
    value {
      type: DT_INT32
    }
  }
  attr {
    key: "_output_shapes"
    value {
      list {
        shape {
          dim {
            size: 1
          }
        }
      }
    }
  }
}
node {
  name: "report_uninitialized_variables_1/boolean_mask/Reshape"
  op: "Reshape"
  input: "report_uninitialized_variables_1/Const"
  input: "report_uninitialized_variables_1/boolean_mask/concat"
  device: "/device:CPU:0"
  attr {
    key: "T"
    value {
      type: DT_STRING
    }
  }
  attr {
    key: "Tshape"
    value {
      type: DT_INT32
    }
  }
  attr {
    key: "_output_shapes"
    value {
      list {
        shape {
          dim {
            size: 12
          }
        }
      }
    }
  }
}
node {
  name: "report_uninitialized_variables_1/boolean_mask/Reshape_1/shape"
  op: "Const"
  device: "/device:CPU:0"
  attr {
    key: "_output_shapes"
    value {
      list {
        shape {
          dim {
            size: 1
          }
        }
      }
    }
  }
  attr {
    key: "dtype"
    value {
      type: DT_INT32
    }
  }
  attr {
    key: "value"
    value {
      tensor {
        dtype: DT_INT32
        tensor_shape {
          dim {
            size: 1
          }
        }
        int_val: -1
      }
    }
  }
}
node {
  name: "report_uninitialized_variables_1/boolean_mask/Reshape_1"
  op: "Reshape"
  input: "report_uninitialized_variables_1/LogicalNot"
  input: "report_uninitialized_variables_1/boolean_mask/Reshape_1/shape"
  device: "/device:CPU:0"
  attr {
    key: "T"
    value {
      type: DT_BOOL
    }
  }
  attr {
    key: "Tshape"
    value {
      type: DT_INT32
    }
  }
  attr {
    key: "_output_shapes"
    value {
      list {
        shape {
          dim {
            size: 12
          }
        }
      }
    }
  }
}
node {
  name: "report_uninitialized_variables_1/boolean_mask/Where"
  op: "Where"
  input: "report_uninitialized_variables_1/boolean_mask/Reshape_1"
  device: "/device:CPU:0"
  attr {
    key: "T"
    value {
      type: DT_BOOL
    }
  }
  attr {
    key: "_output_shapes"
    value {
      list {
        shape {
          dim {
            size: -1
          }
          dim {
            size: 1
          }
        }
      }
    }
  }
}
node {
  name: "report_uninitialized_variables_1/boolean_mask/Squeeze"
  op: "Squeeze"
  input: "report_uninitialized_variables_1/boolean_mask/Where"
  device: "/device:CPU:0"
  attr {
    key: "T"
    value {
      type: DT_INT64
    }
  }
  attr {
    key: "_output_shapes"
    value {
      list {
        shape {
          dim {
            size: -1
          }
        }
      }
    }
  }
  attr {
    key: "squeeze_dims"
    value {
      list {
        i: 1
      }
    }
  }
}
node {
  name: "report_uninitialized_variables_1/boolean_mask/GatherV2/axis"
  op: "Const"
  device: "/device:CPU:0"
  attr {
    key: "_output_shapes"
    value {
      list {
        shape {
        }
      }
    }
  }
  attr {
    key: "dtype"
    value {
      type: DT_INT32
    }
  }
  attr {
    key: "value"
    value {
      tensor {
        dtype: DT_INT32
        tensor_shape {
        }
        int_val: 0
      }
    }
  }
}
node {
  name: "report_uninitialized_variables_1/boolean_mask/GatherV2"
  op: "GatherV2"
  input: "report_uninitialized_variables_1/boolean_mask/Reshape"
  input: "report_uninitialized_variables_1/boolean_mask/Squeeze"
  input: "report_uninitialized_variables_1/boolean_mask/GatherV2/axis"
  device: "/device:CPU:0"
  attr {
    key: "Taxis"
    value {
      type: DT_INT32
    }
  }
  attr {
    key: "Tindices"
    value {
      type: DT_INT64
    }
  }
  attr {
    key: "Tparams"
    value {
      type: DT_STRING
    }
  }
  attr {
    key: "_output_shapes"
    value {
      list {
        shape {
          dim {
            size: -1
          }
        }
      }
    }
  }
}
node {
  name: "init_2"
  op: "NoOp"
  input: "^auc/false_negatives/Assign"
  input: "^auc/false_positives/Assign"
  input: "^auc/true_negatives/Assign"
  input: "^auc/true_positives/Assign"
  input: "^recall/false_negatives/count/Assign"
  input: "^recall/true_positives/count/Assign"
}
node {
  name: "init_all_tables"
  op: "NoOp"
  input: "^MakeIterator"
  input: "^string_to_index/hash_table/table_init"
  device: "/device:CPU:0"
}
node {
  name: "init_3"
  op: "NoOp"
}
node {
  name: "group_deps_1/NoOp"
  op: "NoOp"
  input: "^init_2"
  input: "^init_3"
}
node {
  name: "group_deps_1/NoOp_1"
  op: "NoOp"
  input: "^init_all_tables"
  device: "/device:CPU:0"
}
node {
  name: "group_deps_1"
  op: "NoOp"
  input: "^group_deps_1/NoOp"
  input: "^group_deps_1/NoOp_1"
}
node {
  name: "Merge/MergeSummary"
  op: "MergeSummary"
  input: "loss"
  attr {
    key: "N"
    value {
      i: 1
    }
  }
  attr {
    key: "_output_shapes"
    value {
      list {
        shape {
        }
      }
    }
  }
}
node {
  name: "save/Const"
  op: "Const"
  attr {
    key: "_output_shapes"
    value {
      list {
        shape {
        }
      }
    }
  }
  attr {
    key: "dtype"
    value {
      type: DT_STRING
    }
  }
  attr {
    key: "value"
    value {
      tensor {
        dtype: DT_STRING
        tensor_shape {
        }
        string_val: "model"
      }
    }
  }
}
node {
  name: "save/StringJoin/inputs_1"
  op: "Const"
  attr {
    key: "_output_shapes"
    value {
      list {
        shape {
        }
      }
    }
  }
  attr {
    key: "dtype"
    value {
      type: DT_STRING
    }
  }
  attr {
    key: "value"
    value {
      tensor {
        dtype: DT_STRING
        tensor_shape {
        }
        string_val: "_temp_cf6c0231dc4041a485b61955afe659b3/part"
      }
    }
  }
}
node {
  name: "save/StringJoin"
  op: "StringJoin"
  input: "save/Const"
  input: "save/StringJoin/inputs_1"
  attr {
    key: "N"
    value {
      i: 2
    }
  }
  attr {
    key: "_output_shapes"
    value {
      list {
        shape {
        }
      }
    }
  }
  attr {
    key: "separator"
    value {
      s: ""
    }
  }
}
node {
  name: "save/num_shards"
  op: "Const"
  attr {
    key: "_output_shapes"
    value {
      list {
        shape {
        }
      }
    }
  }
  attr {
    key: "dtype"
    value {
      type: DT_INT32
    }
  }
  attr {
    key: "value"
    value {
      tensor {
        dtype: DT_INT32
        tensor_shape {
        }
        int_val: 1
      }
    }
  }
}
node {
  name: "save/ShardedFilename/shard"
  op: "Const"
  device: "/device:CPU:0"
  attr {
    key: "_output_shapes"
    value {
      list {
        shape {
        }
      }
    }
  }
  attr {
    key: "dtype"
    value {
      type: DT_INT32
    }
  }
  attr {
    key: "value"
    value {
      tensor {
        dtype: DT_INT32
        tensor_shape {
        }
        int_val: 0
      }
    }
  }
}
node {
  name: "save/ShardedFilename"
  op: "ShardedFilename"
  input: "save/StringJoin"
  input: "save/ShardedFilename/shard"
  input: "save/num_shards"
  device: "/device:CPU:0"
  attr {
    key: "_output_shapes"
    value {
      list {
        shape {
        }
      }
    }
  }
}
node {
  name: "save/SaveV2/tensor_names"
  op: "Const"
  device: "/device:CPU:0"
  attr {
    key: "_output_shapes"
    value {
      list {
        shape {
          dim {
            size: 12
          }
        }
      }
    }
  }
  attr {
    key: "dtype"
    value {
      type: DT_STRING
    }
  }
  attr {
    key: "value"
    value {
      tensor {
        dtype: DT_STRING
        tensor_shape {
          dim {
            size: 12
          }
        }
        string_val: "beta1_power"
        string_val: "beta2_power"
        string_val: "fm/Variable"
        string_val: "fm/Variable/Adam"
        string_val: "fm/Variable/Adam_1"
        string_val: "fm/Variable_1"
        string_val: "fm/Variable_1/Adam"
        string_val: "fm/Variable_1/Adam_1"
        string_val: "fm/Variable_2"
        string_val: "fm/Variable_2/Adam"
        string_val: "fm/Variable_2/Adam_1"
        string_val: "global_step"
      }
    }
  }
}
node {
  name: "save/SaveV2/shape_and_slices"
  op: "Const"
  device: "/device:CPU:0"
  attr {
    key: "_output_shapes"
    value {
      list {
        shape {
          dim {
            size: 12
          }
        }
      }
    }
  }
  attr {
    key: "dtype"
    value {
      type: DT_STRING
    }
  }
  attr {
    key: "value"
    value {
      tensor {
        dtype: DT_STRING
        tensor_shape {
          dim {
            size: 12
          }
        }
        string_val: ""
        string_val: ""
        string_val: ""
        string_val: ""
        string_val: ""
        string_val: ""
        string_val: ""
        string_val: ""
        string_val: ""
        string_val: ""
        string_val: ""
        string_val: ""
      }
    }
  }
}
node {
  name: "save/SaveV2"
  op: "SaveV2"
  input: "save/ShardedFilename"
  input: "save/SaveV2/tensor_names"
  input: "save/SaveV2/shape_and_slices"
  input: "beta1_power"
  input: "beta2_power"
  input: "fm/Variable"
  input: "fm/Variable/Adam"
  input: "fm/Variable/Adam_1"
  input: "fm/Variable_1"
  input: "fm/Variable_1/Adam"
  input: "fm/Variable_1/Adam_1"
  input: "fm/Variable_2"
  input: "fm/Variable_2/Adam"
  input: "fm/Variable_2/Adam_1"
  input: "global_step"
  device: "/device:CPU:0"
  attr {
    key: "dtypes"
    value {
      list {
        type: DT_FLOAT
        type: DT_FLOAT
        type: DT_FLOAT
        type: DT_FLOAT
        type: DT_FLOAT
        type: DT_FLOAT
        type: DT_FLOAT
        type: DT_FLOAT
        type: DT_FLOAT
        type: DT_FLOAT
        type: DT_FLOAT
        type: DT_INT64
      }
    }
  }
}
node {
  name: "save/control_dependency"
  op: "Identity"
  input: "save/ShardedFilename"
  input: "^save/SaveV2"
  device: "/device:CPU:0"
  attr {
    key: "T"
    value {
      type: DT_STRING
    }
  }
  attr {
    key: "_class"
    value {
      list {
        s: "loc:@save/ShardedFilename"
      }
    }
  }
  attr {
    key: "_output_shapes"
    value {
      list {
        shape {
        }
      }
    }
  }
}
node {
  name: "save/MergeV2Checkpoints/checkpoint_prefixes"
  op: "Pack"
  input: "save/ShardedFilename"
  input: "^save/control_dependency"
  device: "/device:CPU:0"
  attr {
    key: "N"
    value {
      i: 1
    }
  }
  attr {
    key: "T"
    value {
      type: DT_STRING
    }
  }
  attr {
    key: "_output_shapes"
    value {
      list {
        shape {
          dim {
            size: 1
          }
        }
      }
    }
  }
  attr {
    key: "axis"
    value {
      i: 0
    }
  }
}
node {
  name: "save/MergeV2Checkpoints"
  op: "MergeV2Checkpoints"
  input: "save/MergeV2Checkpoints/checkpoint_prefixes"
  input: "save/Const"
  device: "/device:CPU:0"
  attr {
    key: "delete_old_dirs"
    value {
      b: true
    }
  }
}
node {
  name: "save/Identity"
  op: "Identity"
  input: "save/Const"
  input: "^save/MergeV2Checkpoints"
  input: "^save/control_dependency"
  device: "/device:CPU:0"
  attr {
    key: "T"
    value {
      type: DT_STRING
    }
  }
  attr {
    key: "_output_shapes"
    value {
      list {
        shape {
        }
      }
    }
  }
}
node {
  name: "save/RestoreV2/tensor_names"
  op: "Const"
  device: "/device:CPU:0"
  attr {
    key: "_output_shapes"
    value {
      list {
        shape {
          dim {
            size: 12
          }
        }
      }
    }
  }
  attr {
    key: "dtype"
    value {
      type: DT_STRING
    }
  }
  attr {
    key: "value"
    value {
      tensor {
        dtype: DT_STRING
        tensor_shape {
          dim {
            size: 12
          }
        }
        string_val: "beta1_power"
        string_val: "beta2_power"
        string_val: "fm/Variable"
        string_val: "fm/Variable/Adam"
        string_val: "fm/Variable/Adam_1"
        string_val: "fm/Variable_1"
        string_val: "fm/Variable_1/Adam"
        string_val: "fm/Variable_1/Adam_1"
        string_val: "fm/Variable_2"
        string_val: "fm/Variable_2/Adam"
        string_val: "fm/Variable_2/Adam_1"
        string_val: "global_step"
      }
    }
  }
}
node {
  name: "save/RestoreV2/shape_and_slices"
  op: "Const"
  device: "/device:CPU:0"
  attr {
    key: "_output_shapes"
    value {
      list {
        shape {
          dim {
            size: 12
          }
        }
      }
    }
  }
  attr {
    key: "dtype"
    value {
      type: DT_STRING
    }
  }
  attr {
    key: "value"
    value {
      tensor {
        dtype: DT_STRING
        tensor_shape {
          dim {
            size: 12
          }
        }
        string_val: ""
        string_val: ""
        string_val: ""
        string_val: ""
        string_val: ""
        string_val: ""
        string_val: ""
        string_val: ""
        string_val: ""
        string_val: ""
        string_val: ""
        string_val: ""
      }
    }
  }
}
node {
  name: "save/RestoreV2"
  op: "RestoreV2"
  input: "save/Const"
  input: "save/RestoreV2/tensor_names"
  input: "save/RestoreV2/shape_and_slices"
  device: "/device:CPU:0"
  attr {
    key: "_output_shapes"
    value {
      list {
        shape {
          unknown_rank: true
        }
        shape {
          unknown_rank: true
        }
        shape {
          unknown_rank: true
        }
        shape {
          unknown_rank: true
        }
        shape {
          unknown_rank: true
        }
        shape {
          unknown_rank: true
        }
        shape {
          unknown_rank: true
        }
        shape {
          unknown_rank: true
        }
        shape {
          unknown_rank: true
        }
        shape {
          unknown_rank: true
        }
        shape {
          unknown_rank: true
        }
        shape {
          unknown_rank: true
        }
      }
    }
  }
  attr {
    key: "dtypes"
    value {
      list {
        type: DT_FLOAT
        type: DT_FLOAT
        type: DT_FLOAT
        type: DT_FLOAT
        type: DT_FLOAT
        type: DT_FLOAT
        type: DT_FLOAT
        type: DT_FLOAT
        type: DT_FLOAT
        type: DT_FLOAT
        type: DT_FLOAT
        type: DT_INT64
      }
    }
  }
}
node {
  name: "save/Assign"
  op: "Assign"
  input: "beta1_power"
  input: "save/RestoreV2"
  attr {
    key: "T"
    value {
      type: DT_FLOAT
    }
  }
  attr {
    key: "_class"
    value {
      list {
        s: "loc:@fm/Variable"
      }
    }
  }
  attr {
    key: "_output_shapes"
    value {
      list {
        shape {
        }
      }
    }
  }
  attr {
    key: "use_locking"
    value {
      b: true
    }
  }
  attr {
    key: "validate_shape"
    value {
      b: true
    }
  }
}
node {
  name: "save/Assign_1"
  op: "Assign"
  input: "beta2_power"
  input: "save/RestoreV2:1"
  attr {
    key: "T"
    value {
      type: DT_FLOAT
    }
  }
  attr {
    key: "_class"
    value {
      list {
        s: "loc:@fm/Variable"
      }
    }
  }
  attr {
    key: "_output_shapes"
    value {
      list {
        shape {
        }
      }
    }
  }
  attr {
    key: "use_locking"
    value {
      b: true
    }
  }
  attr {
    key: "validate_shape"
    value {
      b: true
    }
  }
}
node {
  name: "save/Assign_2"
  op: "Assign"
  input: "fm/Variable"
  input: "save/RestoreV2:2"
  attr {
    key: "T"
    value {
      type: DT_FLOAT
    }
  }
  attr {
    key: "_class"
    value {
      list {
        s: "loc:@fm/Variable"
      }
    }
  }
  attr {
    key: "_output_shapes"
    value {
      list {
        shape {
          dim {
            size: 1
          }
        }
      }
    }
  }
  attr {
    key: "use_locking"
    value {
      b: true
    }
  }
  attr {
    key: "validate_shape"
    value {
      b: true
    }
  }
}
node {
  name: "save/Assign_3"
  op: "Assign"
  input: "fm/Variable/Adam"
  input: "save/RestoreV2:3"
  attr {
    key: "T"
    value {
      type: DT_FLOAT
    }
  }
  attr {
    key: "_class"
    value {
      list {
        s: "loc:@fm/Variable"
      }
    }
  }
  attr {
    key: "_output_shapes"
    value {
      list {
        shape {
          dim {
            size: 1
          }
        }
      }
    }
  }
  attr {
    key: "use_locking"
    value {
      b: true
    }
  }
  attr {
    key: "validate_shape"
    value {
      b: true
    }
  }
}
node {
  name: "save/Assign_4"
  op: "Assign"
  input: "fm/Variable/Adam_1"
  input: "save/RestoreV2:4"
  attr {
    key: "T"
    value {
      type: DT_FLOAT
    }
  }
  attr {
    key: "_class"
    value {
      list {
        s: "loc:@fm/Variable"
      }
    }
  }
  attr {
    key: "_output_shapes"
    value {
      list {
        shape {
          dim {
            size: 1
          }
        }
      }
    }
  }
  attr {
    key: "use_locking"
    value {
      b: true
    }
  }
  attr {
    key: "validate_shape"
    value {
      b: true
    }
  }
}
node {
  name: "save/Assign_5"
  op: "Assign"
  input: "fm/Variable_1"
  input: "save/RestoreV2:5"
  attr {
    key: "T"
    value {
      type: DT_FLOAT
    }
  }
  attr {
    key: "_class"
    value {
      list {
        s: "loc:@fm/Variable_1"
      }
    }
  }
  attr {
    key: "_output_shapes"
    value {
      list {
        shape {
          dim {
            size: 8712
          }
          dim {
            size: 1
          }
        }
      }
    }
  }
  attr {
    key: "use_locking"
    value {
      b: true
    }
  }
  attr {
    key: "validate_shape"
    value {
      b: true
    }
  }
}
node {
  name: "save/Assign_6"
  op: "Assign"
  input: "fm/Variable_1/Adam"
  input: "save/RestoreV2:6"
  attr {
    key: "T"
    value {
      type: DT_FLOAT
    }
  }
  attr {
    key: "_class"
    value {
      list {
        s: "loc:@fm/Variable_1"
      }
    }
  }
  attr {
    key: "_output_shapes"
    value {
      list {
        shape {
          dim {
            size: 8712
          }
          dim {
            size: 1
          }
        }
      }
    }
  }
  attr {
    key: "use_locking"
    value {
      b: true
    }
  }
  attr {
    key: "validate_shape"
    value {
      b: true
    }
  }
}
node {
  name: "save/Assign_7"
  op: "Assign"
  input: "fm/Variable_1/Adam_1"
  input: "save/RestoreV2:7"
  attr {
    key: "T"
    value {
      type: DT_FLOAT
    }
  }
  attr {
    key: "_class"
    value {
      list {
        s: "loc:@fm/Variable_1"
      }
    }
  }
  attr {
    key: "_output_shapes"
    value {
      list {
        shape {
          dim {
            size: 8712
          }
          dim {
            size: 1
          }
        }
      }
    }
  }
  attr {
    key: "use_locking"
    value {
      b: true
    }
  }
  attr {
    key: "validate_shape"
    value {
      b: true
    }
  }
}
node {
  name: "save/Assign_8"
  op: "Assign"
  input: "fm/Variable_2"
  input: "save/RestoreV2:8"
  attr {
    key: "T"
    value {
      type: DT_FLOAT
    }
  }
  attr {
    key: "_class"
    value {
      list {
        s: "loc:@fm/Variable_2"
      }
    }
  }
  attr {
    key: "_output_shapes"
    value {
      list {
        shape {
          dim {
            size: 8712
          }
          dim {
            size: 50
          }
        }
      }
    }
  }
  attr {
    key: "use_locking"
    value {
      b: true
    }
  }
  attr {
    key: "validate_shape"
    value {
      b: true
    }
  }
}
node {
  name: "save/Assign_9"
  op: "Assign"
  input: "fm/Variable_2/Adam"
  input: "save/RestoreV2:9"
  attr {
    key: "T"
    value {
      type: DT_FLOAT
    }
  }
  attr {
    key: "_class"
    value {
      list {
        s: "loc:@fm/Variable_2"
      }
    }
  }
  attr {
    key: "_output_shapes"
    value {
      list {
        shape {
          dim {
            size: 8712
          }
          dim {
            size: 50
          }
        }
      }
    }
  }
  attr {
    key: "use_locking"
    value {
      b: true
    }
  }
  attr {
    key: "validate_shape"
    value {
      b: true
    }
  }
}
node {
  name: "save/Assign_10"
  op: "Assign"
  input: "fm/Variable_2/Adam_1"
  input: "save/RestoreV2:10"
  attr {
    key: "T"
    value {
      type: DT_FLOAT
    }
  }
  attr {
    key: "_class"
    value {
      list {
        s: "loc:@fm/Variable_2"
      }
    }
  }
  attr {
    key: "_output_shapes"
    value {
      list {
        shape {
          dim {
            size: 8712
          }
          dim {
            size: 50
          }
        }
      }
    }
  }
  attr {
    key: "use_locking"
    value {
      b: true
    }
  }
  attr {
    key: "validate_shape"
    value {
      b: true
    }
  }
}
node {
  name: "save/Assign_11"
  op: "Assign"
  input: "global_step"
  input: "save/RestoreV2:11"
  attr {
    key: "T"
    value {
      type: DT_INT64
    }
  }
  attr {
    key: "_class"
    value {
      list {
        s: "loc:@global_step"
      }
    }
  }
  attr {
    key: "_output_shapes"
    value {
      list {
        shape {
        }
      }
    }
  }
  attr {
    key: "use_locking"
    value {
      b: true
    }
  }
  attr {
    key: "validate_shape"
    value {
      b: true
    }
  }
}
node {
  name: "save/restore_shard"
  op: "NoOp"
  input: "^save/Assign"
  input: "^save/Assign_1"
  input: "^save/Assign_10"
  input: "^save/Assign_11"
  input: "^save/Assign_2"
  input: "^save/Assign_3"
  input: "^save/Assign_4"
  input: "^save/Assign_5"
  input: "^save/Assign_6"
  input: "^save/Assign_7"
  input: "^save/Assign_8"
  input: "^save/Assign_9"
}
node {
  name: "save/restore_all"
  op: "NoOp"
  input: "^save/restore_shard"
}
library {
  function {
    signature {
      name: "tf_map_func_l95BoEm57NE"
      input_arg {
        name: "arg0"
        type: DT_STRING
      }
      input_arg {
        name: "hash_table_lookup_placeholder"
        type: DT_RESOURCE
      }
      input_arg {
        name: "hash_table_lookup_placeholder_1"
        type: DT_INT64
      }
      output_arg {
        name: "stack"
        type: DT_INT64
      }
      output_arg {
        name: "concat"
        type: DT_INT64
      }
      output_arg {
        name: "hash_table_lookup"
        type: DT_INT64
      }
      output_arg {
        name: "decodecsv"
        type: DT_FLOAT
      }
      description: "A wrapper for Defun that facilitates shape inference."
      is_stateful: true
    }
    node_def {
      name: "DecodeCSV/record_defaults_0"
      op: "Const"
      attr {
        key: "dtype"
        value {
          type: DT_STRING
        }
      }
      attr {
        key: "value"
        value {
          tensor {
            dtype: DT_STRING
            tensor_shape {
              dim {
                size: 1
              }
            }
            string_val: ""
          }
        }
      }
    }
    node_def {
      name: "DecodeCSV/record_defaults_1"
      op: "Const"
      attr {
        key: "dtype"
        value {
          type: DT_STRING
        }
      }
      attr {
        key: "value"
        value {
          tensor {
            dtype: DT_STRING
            tensor_shape {
              dim {
                size: 1
              }
            }
            string_val: ""
          }
        }
      }
    }
    node_def {
      name: "DecodeCSV/record_defaults_2"
      op: "Const"
      attr {
        key: "dtype"
        value {
          type: DT_FLOAT
        }
      }
      attr {
        key: "value"
        value {
          tensor {
            dtype: DT_FLOAT
            tensor_shape {
              dim {
                size: 1
              }
            }
            float_val: 0.0
          }
        }
      }
    }
    node_def {
      name: "DecodeCSV/record_defaults_3"
      op: "Const"
      attr {
        key: "dtype"
        value {
          type: DT_STRING
        }
      }
      attr {
        key: "value"
        value {
          tensor {
            dtype: DT_STRING
            tensor_shape {
              dim {
                size: 1
              }
            }
            string_val: ""
          }
        }
      }
    }
    node_def {
      name: "DecodeCSV/record_defaults_4"
      op: "Const"
      attr {
        key: "dtype"
        value {
          type: DT_STRING
        }
      }
      attr {
        key: "value"
        value {
          tensor {
            dtype: DT_STRING
            tensor_shape {
              dim {
                size: 1
              }
            }
            string_val: ""
          }
        }
      }
    }
    node_def {
      name: "DecodeCSV/record_defaults_5"
      op: "Const"
      attr {
        key: "dtype"
        value {
          type: DT_STRING
        }
      }
      attr {
        key: "value"
        value {
          tensor {
            dtype: DT_STRING
            tensor_shape {
              dim {
                size: 1
              }
            }
            string_val: ""
          }
        }
      }
    }
    node_def {
      name: "DecodeCSV/record_defaults_6"
      op: "Const"
      attr {
        key: "dtype"
        value {
          type: DT_STRING
        }
      }
      attr {
        key: "value"
        value {
          tensor {
            dtype: DT_STRING
            tensor_shape {
              dim {
                size: 1
              }
            }
            string_val: ""
          }
        }
      }
    }
    node_def {
      name: "DecodeCSV/record_defaults_7"
      op: "Const"
      attr {
        key: "dtype"
        value {
          type: DT_STRING
        }
      }
      attr {
        key: "value"
        value {
          tensor {
            dtype: DT_STRING
            tensor_shape {
              dim {
                size: 1
              }
            }
            string_val: ""
          }
        }
      }
    }
    node_def {
      name: "DecodeCSV"
      op: "DecodeCSV"
      input: "arg0"
      input: "DecodeCSV/record_defaults_0:output:0"
      input: "DecodeCSV/record_defaults_1:output:0"
      input: "DecodeCSV/record_defaults_2:output:0"
      input: "DecodeCSV/record_defaults_3:output:0"
      input: "DecodeCSV/record_defaults_4:output:0"
      input: "DecodeCSV/record_defaults_5:output:0"
      input: "DecodeCSV/record_defaults_6:output:0"
      input: "DecodeCSV/record_defaults_7:output:0"
      attr {
        key: "OUT_TYPE"
        value {
          list {
            type: DT_STRING
            type: DT_STRING
            type: DT_FLOAT
            type: DT_STRING
            type: DT_STRING
            type: DT_STRING
            type: DT_STRING
            type: DT_STRING
          }
        }
      }
      attr {
        key: "field_delim"
        value {
          s: ","
        }
      }
      attr {
        key: "na_value"
        value {
          s: ""
        }
      }
      attr {
        key: "use_quote_delim"
        value {
          b: true
        }
      }
    }
    node_def {
      name: "add/x"
      op: "Const"
      attr {
        key: "dtype"
        value {
          type: DT_STRING
        }
      }
      attr {
        key: "value"
        value {
          tensor {
            dtype: DT_STRING
            tensor_shape {
            }
            string_val: "click_seq_"
          }
        }
      }
    }
    node_def {
      name: "add"
      op: "Add"
      input: "add/x:output:0"
      input: "DecodeCSV:output:1"
      attr {
        key: "T"
        value {
          type: DT_STRING
        }
      }
    }
    node_def {
      name: "hash_table_Lookup"
      op: "LookupTableFindV2"
      input: "hash_table_lookup_placeholder"
      input: "add:z:0"
      input: "hash_table_lookup_placeholder_1"
      attr {
        key: "Tin"
        value {
          type: DT_STRING
        }
      }
      attr {
        key: "Tout"
        value {
          type: DT_INT64
        }
      }
    }
    node_def {
      name: "add_1/x"
      op: "Const"
      attr {
        key: "dtype"
        value {
          type: DT_STRING
        }
      }
      attr {
        key: "value"
        value {
          tensor {
            dtype: DT_STRING
            tensor_shape {
            }
            string_val: "screen_year_"
          }
        }
      }
    }
    node_def {
      name: "add_1"
      op: "Add"
      input: "add_1/x:output:0"
      input: "DecodeCSV:output:3"
      attr {
        key: "T"
        value {
          type: DT_STRING
        }
      }
    }
    node_def {
      name: "hash_table_Lookup_1"
      op: "LookupTableFindV2"
      input: "hash_table_lookup_placeholder"
      input: "add_1:z:0"
      input: "hash_table_lookup_placeholder_1"
      attr {
        key: "Tin"
        value {
          type: DT_STRING
        }
      }
      attr {
        key: "Tout"
        value {
          type: DT_INT64
        }
      }
    }
    node_def {
      name: "add_2/x"
      op: "Const"
      attr {
        key: "dtype"
        value {
          type: DT_STRING
        }
      }
      attr {
        key: "value"
        value {
          tensor {
            dtype: DT_STRING
            tensor_shape {
            }
            string_val: "rating_counts_"
          }
        }
      }
    }
    node_def {
      name: "add_2"
      op: "Add"
      input: "add_2/x:output:0"
      input: "DecodeCSV:output:4"
      attr {
        key: "T"
        value {
          type: DT_STRING
        }
      }
    }
    node_def {
      name: "hash_table_Lookup_2"
      op: "LookupTableFindV2"
      input: "hash_table_lookup_placeholder"
      input: "add_2:z:0"
      input: "hash_table_lookup_placeholder_1"
      attr {
        key: "Tin"
        value {
          type: DT_STRING
        }
      }
      attr {
        key: "Tout"
        value {
          type: DT_INT64
        }
      }
    }
    node_def {
      name: "add_3/x"
      op: "Const"
      attr {
        key: "dtype"
        value {
          type: DT_STRING
        }
      }
      attr {
        key: "value"
        value {
          tensor {
            dtype: DT_STRING
            tensor_shape {
            }
            string_val: "rating_mean_"
          }
        }
      }
    }
    node_def {
      name: "add_3"
      op: "Add"
      input: "add_3/x:output:0"
      input: "DecodeCSV:output:5"
      attr {
        key: "T"
        value {
          type: DT_STRING
        }
      }
    }
    node_def {
      name: "hash_table_Lookup_3"
      op: "LookupTableFindV2"
      input: "hash_table_lookup_placeholder"
      input: "add_3:z:0"
      input: "hash_table_lookup_placeholder_1"
      attr {
        key: "Tin"
        value {
          type: DT_STRING
        }
      }
      attr {
        key: "Tout"
        value {
          type: DT_INT64
        }
      }
    }
    node_def {
      name: "stack_0"
      op: "Pack"
      input: "hash_table_Lookup_1:values:0"
      input: "hash_table_Lookup_2:values:0"
      input: "hash_table_Lookup_3:values:0"
      attr {
        key: "N"
        value {
          i: 3
        }
      }
      attr {
        key: "T"
        value {
          type: DT_INT64
        }
      }
      attr {
        key: "axis"
        value {
          i: 0
        }
      }
    }
    node_def {
      name: "Const"
      op: "Const"
      attr {
        key: "dtype"
        value {
          type: DT_STRING
        }
      }
      attr {
        key: "value"
        value {
          tensor {
            dtype: DT_STRING
            tensor_shape {
            }
            string_val: "|"
          }
        }
      }
    }
    node_def {
      name: "packed"
      op: "Pack"
      input: "DecodeCSV:output:6"
      attr {
        key: "N"
        value {
          i: 1
        }
      }
      attr {
        key: "T"
        value {
          type: DT_STRING
        }
      }
      attr {
        key: "axis"
        value {
          i: 0
        }
      }
    }
    node_def {
      name: "StringSplit"
      op: "StringSplit"
      input: "packed:output:0"
      input: "Const:output:0"
      attr {
        key: "skip_empty"
        value {
          b: true
        }
      }
    }
    node_def {
      name: "strided_slice/stack"
      op: "Const"
      attr {
        key: "dtype"
        value {
          type: DT_INT32
        }
      }
      attr {
        key: "value"
        value {
          tensor {
            dtype: DT_INT32
            tensor_shape {
              dim {
                size: 1
              }
            }
            int_val: 0
          }
        }
      }
    }
    node_def {
      name: "strided_slice/stack_1"
      op: "Const"
      attr {
        key: "dtype"
        value {
          type: DT_INT32
        }
      }
      attr {
        key: "value"
        value {
          tensor {
            dtype: DT_INT32
            tensor_shape {
              dim {
                size: 1
              }
            }
            int_val: 30
          }
        }
      }
    }
    node_def {
      name: "strided_slice/stack_2"
      op: "Const"
      attr {
        key: "dtype"
        value {
          type: DT_INT32
        }
      }
      attr {
        key: "value"
        value {
          tensor {
            dtype: DT_INT32
            tensor_shape {
              dim {
                size: 1
              }
            }
            int_val: 1
          }
        }
      }
    }
    node_def {
      name: "strided_slice"
      op: "StridedSlice"
      input: "StringSplit:values:0"
      input: "strided_slice/stack:output:0"
      input: "strided_slice/stack_1:output:0"
      input: "strided_slice/stack_2:output:0"
      attr {
        key: "Index"
        value {
          type: DT_INT32
        }
      }
      attr {
        key: "T"
        value {
          type: DT_STRING
        }
      }
      attr {
        key: "begin_mask"
        value {
          i: 1
        }
      }
      attr {
        key: "ellipsis_mask"
        value {
          i: 0
        }
      }
      attr {
        key: "end_mask"
        value {
          i: 0
        }
      }
      attr {
        key: "new_axis_mask"
        value {
          i: 0
        }
      }
      attr {
        key: "shrink_axis_mask"
        value {
          i: 0
        }
      }
    }
    node_def {
      name: "StringJoin/inputs_0"
      op: "Const"
      attr {
        key: "dtype"
        value {
          type: DT_STRING
        }
      }
      attr {
        key: "value"
        value {
          tensor {
            dtype: DT_STRING
            tensor_shape {
            }
            string_val: "genres"
          }
        }
      }
    }
    node_def {
      name: "StringJoin"
      op: "StringJoin"
      input: "StringJoin/inputs_0:output:0"
      input: "strided_slice:output:0"
      attr {
        key: "N"
        value {
          i: 2
        }
      }
      attr {
        key: "separator"
        value {
          s: "_"
        }
      }
    }
    node_def {
      name: "hash_table_Lookup_4"
      op: "LookupTableFindV2"
      input: "hash_table_lookup_placeholder"
      input: "StringJoin:output:0"
      input: "hash_table_lookup_placeholder_1"
      attr {
        key: "Tin"
        value {
          type: DT_STRING
        }
      }
      attr {
        key: "Tout"
        value {
          type: DT_INT64
        }
      }
    }
    node_def {
      name: "Shape"
      op: "Shape"
      input: "hash_table_Lookup_4:values:0"
      attr {
        key: "T"
        value {
          type: DT_INT64
        }
      }
      attr {
        key: "out_type"
        value {
          type: DT_INT32
        }
      }
    }
    node_def {
      name: "strided_slice_1/stack"
      op: "Const"
      attr {
        key: "dtype"
        value {
          type: DT_INT32
        }
      }
      attr {
        key: "value"
        value {
          tensor {
            dtype: DT_INT32
            tensor_shape {
              dim {
                size: 1
              }
            }
            int_val: 0
          }
        }
      }
    }
    node_def {
      name: "strided_slice_1/stack_1"
      op: "Const"
      attr {
        key: "dtype"
        value {
          type: DT_INT32
        }
      }
      attr {
        key: "value"
        value {
          tensor {
            dtype: DT_INT32
            tensor_shape {
              dim {
                size: 1
              }
            }
            int_val: 1
          }
        }
      }
    }
    node_def {
      name: "strided_slice_1/stack_2"
      op: "Const"
      attr {
        key: "dtype"
        value {
          type: DT_INT32
        }
      }
      attr {
        key: "value"
        value {
          tensor {
            dtype: DT_INT32
            tensor_shape {
              dim {
                size: 1
              }
            }
            int_val: 1
          }
        }
      }
    }
    node_def {
      name: "strided_slice_1"
      op: "StridedSlice"
      input: "Shape:output:0"
      input: "strided_slice_1/stack:output:0"
      input: "strided_slice_1/stack_1:output:0"
      input: "strided_slice_1/stack_2:output:0"
      attr {
        key: "Index"
        value {
          type: DT_INT32
        }
      }
      attr {
        key: "T"
        value {
          type: DT_INT32
        }
      }
      attr {
        key: "begin_mask"
        value {
          i: 0
        }
      }
      attr {
        key: "ellipsis_mask"
        value {
          i: 0
        }
      }
      attr {
        key: "end_mask"
        value {
          i: 0
        }
      }
      attr {
        key: "new_axis_mask"
        value {
          i: 0
        }
      }
      attr {
        key: "shrink_axis_mask"
        value {
          i: 1
        }
      }
    }
    node_def {
      name: "sub/x"
      op: "Const"
      attr {
        key: "dtype"
        value {
          type: DT_INT32
        }
      }
      attr {
        key: "value"
        value {
          tensor {
            dtype: DT_INT32
            tensor_shape {
            }
            int_val: 30
          }
        }
      }
    }
    node_def {
      name: "sub"
      op: "Sub"
      input: "sub/x:output:0"
      input: "strided_slice_1:output:0"
      attr {
        key: "T"
        value {
          type: DT_INT32
        }
      }
    }
    node_def {
      name: "Pad/paddings/0/0"
      op: "Const"
      attr {
        key: "dtype"
        value {
          type: DT_INT32
        }
      }
      attr {
        key: "value"
        value {
          tensor {
            dtype: DT_INT32
            tensor_shape {
            }
            int_val: 0
          }
        }
      }
    }
    node_def {
      name: "Pad/paddings/0"
      op: "Pack"
      input: "Pad/paddings/0/0:output:0"
      input: "sub:z:0"
      attr {
        key: "N"
        value {
          i: 2
        }
      }
      attr {
        key: "T"
        value {
          type: DT_INT32
        }
      }
      attr {
        key: "axis"
        value {
          i: 0
        }
      }
    }
    node_def {
      name: "Pad/paddings"
      op: "Pack"
      input: "Pad/paddings/0:output:0"
      attr {
        key: "N"
        value {
          i: 1
        }
      }
      attr {
        key: "T"
        value {
          type: DT_INT32
        }
      }
      attr {
        key: "axis"
        value {
          i: 0
        }
      }
    }
    node_def {
      name: "Pad"
      op: "Pad"
      input: "hash_table_Lookup_4:values:0"
      input: "Pad/paddings:output:0"
      attr {
        key: "T"
        value {
          type: DT_INT64
        }
      }
      attr {
        key: "Tpaddings"
        value {
          type: DT_INT32
        }
      }
    }
    node_def {
      name: "Const_1"
      op: "Const"
      attr {
        key: "dtype"
        value {
          type: DT_STRING
        }
      }
      attr {
        key: "value"
        value {
          tensor {
            dtype: DT_STRING
            tensor_shape {
            }
            string_val: "|"
          }
        }
      }
    }
    node_def {
      name: "packed_1"
      op: "Pack"
      input: "DecodeCSV:output:7"
      attr {
        key: "N"
        value {
          i: 1
        }
      }
      attr {
        key: "T"
        value {
          type: DT_STRING
        }
      }
      attr {
        key: "axis"
        value {
          i: 0
        }
      }
    }
    node_def {
      name: "StringSplit_1"
      op: "StringSplit"
      input: "packed_1:output:0"
      input: "Const_1:output:0"
      attr {
        key: "skip_empty"
        value {
          b: true
        }
      }
    }
    node_def {
      name: "strided_slice_2/stack"
      op: "Const"
      attr {
        key: "dtype"
        value {
          type: DT_INT32
        }
      }
      attr {
        key: "value"
        value {
          tensor {
            dtype: DT_INT32
            tensor_shape {
              dim {
                size: 1
              }
            }
            int_val: 0
          }
        }
      }
    }
    node_def {
      name: "strided_slice_2/stack_1"
      op: "Const"
      attr {
        key: "dtype"
        value {
          type: DT_INT32
        }
      }
      attr {
        key: "value"
        value {
          tensor {
            dtype: DT_INT32
            tensor_shape {
              dim {
                size: 1
              }
            }
            int_val: 30
          }
        }
      }
    }
    node_def {
      name: "strided_slice_2/stack_2"
      op: "Const"
      attr {
        key: "dtype"
        value {
          type: DT_INT32
        }
      }
      attr {
        key: "value"
        value {
          tensor {
            dtype: DT_INT32
            tensor_shape {
              dim {
                size: 1
              }
            }
            int_val: 1
          }
        }
      }
    }
    node_def {
      name: "strided_slice_2"
      op: "StridedSlice"
      input: "StringSplit_1:values:0"
      input: "strided_slice_2/stack:output:0"
      input: "strided_slice_2/stack_1:output:0"
      input: "strided_slice_2/stack_2:output:0"
      attr {
        key: "Index"
        value {
          type: DT_INT32
        }
      }
      attr {
        key: "T"
        value {
          type: DT_STRING
        }
      }
      attr {
        key: "begin_mask"
        value {
          i: 1
        }
      }
      attr {
        key: "ellipsis_mask"
        value {
          i: 0
        }
      }
      attr {
        key: "end_mask"
        value {
          i: 0
        }
      }
      attr {
        key: "new_axis_mask"
        value {
          i: 0
        }
      }
      attr {
        key: "shrink_axis_mask"
        value {
          i: 0
        }
      }
    }
    node_def {
      name: "StringJoin_1/inputs_0"
      op: "Const"
      attr {
        key: "dtype"
        value {
          type: DT_STRING
        }
      }
      attr {
        key: "value"
        value {
          tensor {
            dtype: DT_STRING
            tensor_shape {
            }
            string_val: "click_seq"
          }
        }
      }
    }
    node_def {
      name: "StringJoin_1"
      op: "StringJoin"
      input: "StringJoin_1/inputs_0:output:0"
      input: "strided_slice_2:output:0"
      attr {
        key: "N"
        value {
          i: 2
        }
      }
      attr {
        key: "separator"
        value {
          s: "_"
        }
      }
    }
    node_def {
      name: "hash_table_Lookup_5"
      op: "LookupTableFindV2"
      input: "hash_table_lookup_placeholder"
      input: "StringJoin_1:output:0"
      input: "hash_table_lookup_placeholder_1"
      attr {
        key: "Tin"
        value {
          type: DT_STRING
        }
      }
      attr {
        key: "Tout"
        value {
          type: DT_INT64
        }
      }
    }
    node_def {
      name: "Shape_1"
      op: "Shape"
      input: "hash_table_Lookup_5:values:0"
      attr {
        key: "T"
        value {
          type: DT_INT64
        }
      }
      attr {
        key: "out_type"
        value {
          type: DT_INT32
        }
      }
    }
    node_def {
      name: "strided_slice_3/stack"
      op: "Const"
      attr {
        key: "dtype"
        value {
          type: DT_INT32
        }
      }
      attr {
        key: "value"
        value {
          tensor {
            dtype: DT_INT32
            tensor_shape {
              dim {
                size: 1
              }
            }
            int_val: 0
          }
        }
      }
    }
    node_def {
      name: "strided_slice_3/stack_1"
      op: "Const"
      attr {
        key: "dtype"
        value {
          type: DT_INT32
        }
      }
      attr {
        key: "value"
        value {
          tensor {
            dtype: DT_INT32
            tensor_shape {
              dim {
                size: 1
              }
            }
            int_val: 1
          }
        }
      }
    }
    node_def {
      name: "strided_slice_3/stack_2"
      op: "Const"
      attr {
        key: "dtype"
        value {
          type: DT_INT32
        }
      }
      attr {
        key: "value"
        value {
          tensor {
            dtype: DT_INT32
            tensor_shape {
              dim {
                size: 1
              }
            }
            int_val: 1
          }
        }
      }
    }
    node_def {
      name: "strided_slice_3"
      op: "StridedSlice"
      input: "Shape_1:output:0"
      input: "strided_slice_3/stack:output:0"
      input: "strided_slice_3/stack_1:output:0"
      input: "strided_slice_3/stack_2:output:0"
      attr {
        key: "Index"
        value {
          type: DT_INT32
        }
      }
      attr {
        key: "T"
        value {
          type: DT_INT32
        }
      }
      attr {
        key: "begin_mask"
        value {
          i: 0
        }
      }
      attr {
        key: "ellipsis_mask"
        value {
          i: 0
        }
      }
      attr {
        key: "end_mask"
        value {
          i: 0
        }
      }
      attr {
        key: "new_axis_mask"
        value {
          i: 0
        }
      }
      attr {
        key: "shrink_axis_mask"
        value {
          i: 1
        }
      }
    }
    node_def {
      name: "sub_1/x"
      op: "Const"
      attr {
        key: "dtype"
        value {
          type: DT_INT32
        }
      }
      attr {
        key: "value"
        value {
          tensor {
            dtype: DT_INT32
            tensor_shape {
            }
            int_val: 30
          }
        }
      }
    }
    node_def {
      name: "sub_1"
      op: "Sub"
      input: "sub_1/x:output:0"
      input: "strided_slice_3:output:0"
      attr {
        key: "T"
        value {
          type: DT_INT32
        }
      }
    }
    node_def {
      name: "Pad_1/paddings/0/0"
      op: "Const"
      attr {
        key: "dtype"
        value {
          type: DT_INT32
        }
      }
      attr {
        key: "value"
        value {
          tensor {
            dtype: DT_INT32
            tensor_shape {
            }
            int_val: 0
          }
        }
      }
    }
    node_def {
      name: "Pad_1/paddings/0"
      op: "Pack"
      input: "Pad_1/paddings/0/0:output:0"
      input: "sub_1:z:0"
      attr {
        key: "N"
        value {
          i: 2
        }
      }
      attr {
        key: "T"
        value {
          type: DT_INT32
        }
      }
      attr {
        key: "axis"
        value {
          i: 0
        }
      }
    }
    node_def {
      name: "Pad_1/paddings"
      op: "Pack"
      input: "Pad_1/paddings/0:output:0"
      attr {
        key: "N"
        value {
          i: 1
        }
      }
      attr {
        key: "T"
        value {
          type: DT_INT32
        }
      }
      attr {
        key: "axis"
        value {
          i: 0
        }
      }
    }
    node_def {
      name: "Pad_1"
      op: "Pad"
      input: "hash_table_Lookup_5:values:0"
      input: "Pad_1/paddings:output:0"
      attr {
        key: "T"
        value {
          type: DT_INT64
        }
      }
      attr {
        key: "Tpaddings"
        value {
          type: DT_INT32
        }
      }
    }
    node_def {
      name: "concat/axis"
      op: "Const"
      attr {
        key: "dtype"
        value {
          type: DT_INT32
        }
      }
      attr {
        key: "value"
        value {
          tensor {
            dtype: DT_INT32
            tensor_shape {
            }
            int_val: 0
          }
        }
      }
    }
    node_def {
      name: "concat_0"
      op: "ConcatV2"
      input: "Pad:output:0"
      input: "Pad_1:output:0"
      input: "concat/axis:output:0"
      attr {
        key: "N"
        value {
          i: 2
        }
      }
      attr {
        key: "T"
        value {
          type: DT_INT64
        }
      }
      attr {
        key: "Tidx"
        value {
          type: DT_INT32
        }
      }
    }
    ret {
      key: "concat"
      value: "concat_0:output:0"
    }
    ret {
      key: "decodecsv"
      value: "DecodeCSV:output:2"
    }
    ret {
      key: "hash_table_lookup"
      value: "hash_table_Lookup:values:0"
    }
    ret {
      key: "stack"
      value: "stack_0:output:0"
    }
  }
}
versions {
  producer: 26
  min_consumer: 12
}
